ann_model_fold_2.pth (torch, 48335 bytes, 7 tensors)

fc1.weight f4 [128, 8]
000000 85 1a af 3b 3b 76 6b 3e cf 5a 15 be f4 78 a8 bc
       0.0053437375 0.2299432 -0.14585422 -0.020565487
000010 b7 bc fc 3d 96 3c 6d 3d d1 5f 71 3f 54 ed 8f be
       0.12340682 0.057919107 0.9428683 -0.28110754
000020 a6 97 c7 3e 2a 86 d1 3d 0c 7b 3b 3e e5 ce 6e be
       0.38982886 0.10230668 0.18308657 -0.23321112
000030 97 d5 af be a2 67 c0 be 5e 07 4e 3f 69 05 da 3e
       -0.34342644 -0.37579066 0.8047999 0.42582253
000040 fb cf 5c be ae 1f 75 be 6d 83 80 3d 0a 35 2b bc
       -0.21563713 -0.23937866 0.062750675 -0.010449657
000050 41 f2 84 be 5b e0 94 be 3e 59 8b 3e 0b 1b 78 3f
       -0.25966075 -0.2907742 0.27216524 0.96916264
000060 ea 0d a5 be 33 20 85 3e b1 a0 29 be 0c ee a6 be
       -0.32237178 0.2600113 -0.16565205 -0.3260349
000070 bc b0 44 bd cd e6 f4 be e7 52 ac 3e a6 a0 e0 3e
       -0.04802011 -0.47832337 0.33657 0.43872565
000080 2d a4 f4 bd d6 b2 34 3e d7 b3 20 bb 40 84 d8 bd
       -0.119453765 0.17646345 -0.0024521255 -0.105721
000090 d7 eb 64 bd 9a ba 2d 3e a9 17 f6 3e 54 0f d3 bd
       -0.055888977 0.16965714 0.48064926 -0.10305658
0000a0 ac cd 28 3e d3 69 47 3e dd 9f 40 3e 21 69 e8 3e
       0.16484708 0.19473962 0.18810983 0.45392707
0000b0 6f fb ed 3e b5 4a e6 3e f7 44 0a 3f bd a7 29 bf
       0.4648089 0.44978872 0.5401148 -0.66271573
0000c0 d6 35 98 3c 1c a2 91 be 92 48 87 3e f2 97 10 be
       0.018580358 -0.28443992 0.26422554 -0.14120463
0000d0 93 d7 5b be ab e7 90 be 11 d0 1b 3e e5 b3 1b 3f
       -0.21468954 -0.2830175 0.1521609 0.6082137
0000e0 07 e1 3a 3f b8 72 17 3f 22 ca 2a 3e 51 79 18 3e
       0.72999614 0.5915942 0.1667867 0.14890029
0000f0 31 fe 80 3e 49 56 1f bd b5 8e 75 3f 33 b4 0b bd
       0.25193933 -0.038900647 0.9592088 -0.0341074
000100 43 3a f6 3d 43 f6 db be 92 d8 be be dd 7b 1e be
       0.12022831 -0.4296132 -0.37274605 -0.15476938
000110 e2 ce 02 bf 77 e6 38 be b8 e1 bd 3e aa 75 28 3f
       -0.5109693 -0.18056665 0.37086272 0.6580454
000120 64 15 31 be 25 fe 89 be 5a 5f 99 3d 74 84 b9 3d
       -0.17293316 -0.2695171 0.0748889 0.090584666
000130 0d 10 51 3d 23 a5 fe 3c 3e 61 e2 3e 42 19 c2 3d
       0.051040698 0.031084603 0.44214815 0.09477474
000140 21 e7 73 be 0d eb af bd 54 9a 19 be a4 9b 04 bd
       -0.23818637 -0.08589754 -0.15000278 -0.032374993
000150 1d 4f ed bd f1 76 8f be 4a 41 1d 3f ce 0e 19 3f
       -0.11587355 -0.28020433 0.6142775 0.59788215
000160 1a 3a 8e be 2b e9 6b be 7e a1 e5 3e cc 5c a9 be
       -0.27778703 -0.23038165 0.4484977 -0.3307861
000170 c5 7a 93 be 8f 9d 9e be 98 ff e1 3e 8c 28 4c 3f
       -0.28804603 -0.30979583 0.44140315 0.7974937
000180 d9 c7 06 3f 65 38 b4 3c 96 70 1f 3f d5 c4 9d 3e
       0.52648693 0.021999547 0.6228117 0.30814233
000190 e7 54 8f 3c 2e 98 c4 bc 98 63 4e 3e 3b d7 40 3f
       0.01749654 -0.023998346 0.2015518 0.75328416
0001a0 00 c8 f2 bc 33 b2 d0 3d b5 bc 92 3d 82 2d 4f be
       -0.029636383 0.10190239 0.07164899 -0.20232204
0001b0 10 f9 28 3e a1 b8 6e be d6 cf ef 3e 8e 1e 10 3d
       0.1650126 -0.23312618 0.46838254 0.03518539
0001c0 3b de 38 3e 22 c3 dc 3e 0a 02 1b 3e 69 20 8b 3e
       0.18053524 0.43117625 0.15137497 0.27173164
0001d0 e1 35 cd 3e 10 23 b8 3d af 9c 8e 3e fb 22 37 bf
       0.4008017 0.08991063 0.27853915 -0.7153775
0001e0 89 23 b6 3c 59 f3 ba be 7c 9b 8e 3c 7f 1d 51 3d
       0.022233741 -0.36513785 0.017408125 0.05105352
0001f0 0e e4 6e 3d 56 1a d1 be de 74 2b 3f c8 87 7e 3f
       0.05832296 -0.40840405 0.669752 0.99425936
000200 65 85 3e be 87 45 cb bc 81 26 a7 bc 0d 03 da be
       -0.18605573 -0.024813427 -0.020404102 -0.42580453
000210 ae 21 12 bf 25 e0 04 bf d5 71 32 3f a8 6a d5 3e
       -0.5708264 -0.5190452 0.69704944 0.41682935
000220 51 d1 ea ba 35 41 bd 3c af 38 9d bd 64 f6 3f be
       -0.0017915164 0.023102382 -0.07676827 -0.18746334
000230 22 54 87 be 1f 1f 20 bf 7a 46 94 3e d8 0c 7d 3f
       -0.26431376 -0.6254749 0.2896002 0.98847723
000240 cb e1 9c 3d 28 3a 82 be 5c a2 45 be 11 a8 9e 3e
       0.07660254 -0.25434995 -0.19300216 0.309876
000250 ea 23 1a 3d 4a 3a cf 3b 24 92 34 3f 5c 0d 02 bf
       0.037631907 0.0063240873 0.7053549 -0.50801635
000260 ac 62 f8 bc 61 cf 5f 3e 19 70 ca 3b 64 34 f7 bc
       -0.030320488 0.21856453 0.006177914 -0.030176349
000270 f6 d5 b7 3d df ce 70 be b1 80 31 3f 7e 74 8e 3c
       0.08976357 -0.23516415 0.6933699 0.017389532
000280 b6 d8 e8 bd ef 39 a8 be 33 d2 de 3e 96 07 48 be
       -0.11369459 -0.328567 0.43519744 -0.19534144
000290 1e 3c 53 be 6c 51 da be ae 25 54 3f 3c 6b 53 3f
       -0.20628402 -0.42640245 0.82869995 0.825855
0002a0 48 1a 20 be f1 0c b7 3d 6d 85 5c 3f 8f cf b9 be
       -0.15635026 0.08938015 0.8614109 -0.36291167
0002b0 00 f9 68 be ca ac 9c be 9b b7 3d 3f 17 ae b1 be
       -0.22751236 -0.30600578 0.74108285 -0.34703133
0002c0 e5 10 0a 3f cb d5 c4 3e 61 14 61 3e 74 22 f7 3e
       0.5393203 0.3844436 0.2198043 0.48268473
0002d0 d1 fe b9 be cc a1 55 bd 8c 64 22 3f 4d db 4b 3f
       -0.36327222 -0.052156255 0.6343467 0.796315
0002e0 c6 4a ab 3e ae 86 a3 bd 3f 19 0b 3f 06 58 24 3c
       0.33455485 -0.079846725 0.543354 0.010030752
0002f0 bd 2f 64 3e 90 4a 62 3e 9c d8 23 3f e2 05 44 3f
       0.22283836 0.22098756 0.64002395 0.76571476
000300 bb 31 a6 3e 2f 69 04 3f 63 4f 75 3e 8d b0 a7 3e
       0.32459816 0.51723 0.23956065 0.32751885
000310 8d 3a b4 3e 60 f7 5b 3d 3c 78 65 3f bc 89 00 bf
       0.3520092 0.053702712 0.8963659 -0.50210166
000320 2a 81 1d be e3 b8 6e be 3c dd 0f 3f e9 70 90 3d
       -0.15381303 -0.23312716 0.5619695 0.07052786
000330 36 90 4c bd 92 ca 2d be 48 75 08 3f 1a a1 fb 3e
       -0.049942218 -0.16971806 0.53303957 0.49146348
000340 8b 98 a8 3e 88 e0 62 3d 68 da 07 bd 45 bd 1f bd
       0.3292888 0.05538991 -0.033167273 -0.03899886
000350 ad 43 2e 3e b5 d6 41 bc 03 69 61 3f 5a 6c 29 be
       0.17018004 -0.011830975 0.8805086 -0.16545239
000360 d8 e3 10 be 6e cf 5f be f4 14 46 3e 81 69 a6 3e
       -0.14149415 -0.21856472 0.1934393 0.32502368
000370 cf 23 8d 3e ff 79 96 be fe 04 7e 3f b0 36 4a bc
       0.27566382 -0.2938995 0.9922637 -0.01234214
000380 d6 fe d6 3e 81 b9 92 3e 99 aa 19 3f 07 00 1b 3e
       0.419913 0.28657153 0.60025936 0.15136729
000390 40 5b ca be f8 71 0c be 99 48 be 3e 5c 46 c4 3e
       -0.39522743 -0.1371535 0.37164763 0.3833493
0003a0 2f 37 92 3e 2a 65 0d be 4b 4f 66 bc 3c 9e df 3e
       0.28557727 -0.13808122 -0.014056991 0.4367541
0003b0 7f 44 b5 be 88 f0 e9 bd f5 a5 33 3f 65 6a ac 3c
       -0.3540382 -0.11422831 0.70175105 0.021046827
0003c0 03 40 84 be 85 75 dd be 7b 78 80 3e 1e d3 bd be
       -0.25830087 -0.43253723 0.2509192 -0.37075132
0003d0 04 b5 ef be 14 50 09 bf bc 8c 51 3e 29 95 c7 3e
       -0.4681779 -0.53637815 0.20463842 0.38980988
0003e0 5f 46 1f 3f 68 28 69 bd a4 2e 87 3d a6 02 86 3e
       0.6221675 -0.0569233 0.06600693 0.26173896
0003f0 de 7c 13 bb 7f c1 48 3d fa 83 9d 3e 92 03 0d 3f
       -0.0022504847 0.049012657 0.30764753 0.5508357

fc1.bias f4 [128]
000000 39 f5 8f 3f af a7 ec 3e d3 5a 45 3f d9 43 e4 3e
       1.1246711 0.46221682 0.7709171 0.44583014
000010 4d c1 77 3f b4 45 36 3e cc 15 3e 3f 8f ee d0 3d
       0.9677933 0.17800027 0.7425201 0.102017514
000020 0a ee 0a 3e 89 83 79 3f 0b 61 75 3e 31 bf b1 3e
       0.13567367 0.9746633 0.239628 0.3471618
000030 30 a8 0e 3f 0b 57 88 3f 45 86 d0 3e d5 6b 7f 3e
       0.55725384 1.0651563 0.4072744 0.24943478
000040 ac 9b e1 3e 42 d0 3d 3f 03 f7 67 3f 48 95 90 3f
       0.4406408 0.741459 0.90611285 1.1295557
000050 a7 9c 5c 3e 8a 52 35 3f 2e 47 f5 3e 32 55 79 3e
       0.21544133 0.7082907 0.47905868 0.24348906
000060 53 3e 1a 3f 40 d9 f7 3e b6 8a 8c 3f 70 0b 54 3e
       0.6025135 0.48407936 1.0979831 0.20707488
000070 44 04 51 3f 3a d3 8f 3f 4e c2 54 3f 11 e3 f3 3e
       0.81647134 1.1236336 0.83108985 0.47634175
000080 35 eb a4 3e d5 0d 15 3f a1 c4 16 3f 66 d7 2b 3f
       0.322107 0.5822423 0.5889378 0.67125547
000090 24 d5 69 3f a5 62 89 3f f3 f8 98 3e 57 c0 7d 3e
       0.9134085 1.0733229 0.29877433 0.24780403
0000a0 eb b6 b5 3e bf c8 c3 3e 4d f0 2c 3f 52 db 84 3f
       0.35491118 0.38239095 0.6755417 1.0379431
0000b0 cc dc 0a 3f 57 f0 92 3f fe da 49 3f e5 da 15 3e
       0.5424316 1.1479596 0.7884978 0.14634283
0000c0 f7 2f 0c 3f 66 90 ce 3e c8 1a 14 3f 07 eb 6a 3f
       0.5476069 0.40344542 0.57853365 0.91764873
0000d0 72 73 12 3d 69 3a 90 3e 77 eb 2e 3f 6b ec f8 3c
       0.03575463 0.28169563 0.6832804 0.03038617
0000e0 c9 08 23 3f fb b9 4d 3f a6 40 f3 3e e3 1c ba 3e
       0.6368528 0.8036191 0.4751026 0.36350164
0000f0 59 99 83 3f 5b d6 82 3e 6d 54 2c 3e 68 93 54 3f
       1.0281173 0.25554165 0.16829081 0.83037424
000100 cc 3a f1 3e 86 d7 73 3e b7 5f 07 3f ca 65 95 3f
       0.4711517 0.23812684 0.52880424 1.1671689
000110 08 b2 c9 3d a3 97 ea 3e 7a d6 c5 3e 82 76 16 3e
       0.0984841 0.45818815 0.38640195 0.14693645
000120 4e cf 91 3f b3 70 ef 3e 03 26 db 3e d8 70 35 3f
       1.1391389 0.4676567 0.42802438 0.7087531
000130 e6 ba 76 3f 8e bb 54 3f 4a 8b 45 3f 4d ed 27 3f
       0.96378934 0.83098686 0.77165663 0.6559647
000140 28 10 60 3f 80 12 cc 3e 93 4d 2f 3f 09 c2 37 3f
       0.8752465 0.39857864 0.68477744 0.7178045
000150 23 b1 5f 3f 69 fd 80 3f 99 f6 83 3f 18 d4 79 3f
       0.87379664 1.0077335 1.0309631 0.97589254
000160 08 26 55 3f 72 50 7c 3f 39 7b ad 3e fe 8b e7 3e
       0.83261156 0.9856025 0.33883074 0.45223993
000170 c6 7f bc 3e fc 71 6c 3f ba 81 8b 3e 88 d8 3b 3f
       0.36816233 0.92361426 0.2724741 0.73377275
000180 b2 55 6b 3e 0c a2 82 3f 91 00 ff 3e d6 e4 7b 3f
       0.22981909 1.0205703 0.4980512 0.9839605
000190 a8 c4 41 3f 24 d9 0d 3f ad c7 8b 3f 43 fa ff 3e
       0.756907 0.55409455 1.0920311 0.49995622
0001a0 87 33 63 3f f2 a0 6d 3f cd 6e 00 3f aa b3 48 3e
       0.887505 0.9282371 0.5016907 0.19599786
0001b0 a1 80 87 3f c2 31 19 3f 8d ad 08 bd a1 5d 58 3f
       1.058613 0.5984155 -0.033368636 0.84517866
0001c0 1f ec 3b 3f 9f 88 49 3f c7 22 29 3f ab 0f 90 3f
       0.7340717 0.7872409 0.6606869 1.1254781
0001d0 0e db 83 3f 4d 1b 01 3f f7 93 81 3f ea 2e 87 3f
       1.0301225 0.5043228 1.012328 1.0561192
0001e0 4e 4e 86 3e 86 97 98 3f c4 ed fa 3e 3f e3 2c 3f
       0.26231617 1.1921241 0.49009526 0.6753425
0001f0 1c 0a 2b 3e 82 df 91 3e 88 36 95 3f fa 85 1a 3f
       0.16703075 0.28490835 1.1657267 0.6036068

fc2.weight f4 [64, 128]
000000 03 75 ec 3e 66 8f be 3e 5e 93 69 3e 14 75 a3 3e
       0.46183023 0.3721878 0.22810122 0.3192526
000010 7c aa 12 3f b9 99 c8 3e f5 5d c7 3e 16 fe 16 3f
       0.5729139 0.3917978 0.3893887 0.58981454
000020 2b f7 4c 3e d5 fe 17 3f 8d 1e 7b 3e df 0f 7d 3e
       0.20016162 0.5937322 0.24523373 0.24713086
000030 63 e7 98 3e 46 78 d3 3e f6 73 90 3e 65 44 a1 3e
       0.29864034 0.413027 0.2821347 0.31497493
000040 02 bd a4 3e 73 82 9b 3e 0d 1e cf 3e 17 22 cd 3e
       0.32175452 0.30372962 0.40452614 0.4006507
000050 df 34 b7 3e 6c 15 ce 3e cb dc 0a 3f d2 a9 f4 3e
       0.35782525 0.4025072 0.54243153 0.47785813
000060 2a 26 d3 3e 73 d3 a5 3e 46 21 db 3e 27 c8 cc 3e
       0.41240054 0.32387885 0.42798823 0.39996454
000070 56 2c cf 3e 3e 08 15 3f b1 89 a3 3e ff 95 77 3e
       0.40463513 0.582157 0.31940988 0.24178313
000080 44 07 d7 3e 4f 76 bb 3e 83 f0 8f 3e 81 d2 25 3f
       0.4199773 0.366137 0.28113183 0.6477433
000090 55 d2 e6 3e a7 63 11 3f 9f 16 e8 3e f9 be f1 3e
       0.45082346 0.5679268 0.4532976 0.47216013
0000a0 f1 81 ba 3e 66 a5 5b 3e 5c 62 ee 3e 3f 34 15 3f
       0.36427262 0.21449813 0.46559417 0.58282846
0000b0 56 b9 f8 3e d4 1e f6 3e 60 53 a8 3e db 9e ad 3e
       0.485789 0.48070395 0.3287611 0.3391026
0000c0 81 ee be 3e 34 8c 19 3f f9 1c 00 3f 93 8d bd 3e
       0.3729134 0.5997956 0.5004421 0.37022075
0000d0 38 fb 15 3f 2a e5 b6 3c 4a 21 b9 3e 18 40 03 3f
       0.58586454 0.02232607 0.3615821 0.51269674
0000e0 1e 25 c9 3e 04 41 bd 3e b7 5c c8 3e 3c a3 e7 3e
       0.3928613 0.36963665 0.39133236 0.45241725
0000f0 d5 6c f1 3e 73 5c 28 3f 98 58 5c 3e db 6a d5 3e
       0.47153345 0.65766066 0.21518171 0.41683087
000100 f3 cb a2 3e 95 d2 ab 3e 5f 8a 9d 3e c7 41 17 3f
       0.31796226 0.335591 0.3076963 0.59084743
000110 52 b0 eb 3e 0c 25 f9 3e f4 19 e8 3e 64 62 a5 3e
       0.4603296 0.48661077 0.453323 0.3230163
000120 9e 76 04 3f 31 aa 86 3e bd 82 e3 3e d1 da c7 3e
       0.51743495 0.2630172 0.44435683 0.3903413
000130 8d 88 d0 3e 70 2b f2 3e 85 d4 bb 3e 86 11 8b 3e
       0.4072918 0.47298765 0.36685577 0.27161807
000140 28 d6 ee 3e bd ad 94 3e 73 c6 b8 3e 88 68 ea 3e
       0.46647763 0.29038802 0.36088905 0.45782876
000150 5e b8 e3 3e 8c b0 df 3e e1 d7 01 3f 8c a1 0b 3f
       0.44476599 0.43689382 0.5072003 0.54543376
000160 90 7c ad 3e 68 c9 01 3f 15 60 c1 3e b3 f0 8f 3e
       0.33884096 0.50697947 0.37768617 0.28113326
000170 82 e0 89 3e 2b fb 0d 3f 8a 10 c3 3e 71 b6 e0 3e
       0.26929098 0.55461377 0.38098556 0.43889192
000180 6e e8 10 3e 04 97 01 3f 77 bd cd 3e 35 8a bd 3e
       0.14151165 0.50621057 0.40183613 0.37019506
000190 2c c4 92 3e d5 44 0d 3f c8 f5 ea 3e 53 32 a9 3e
       0.28665292 0.55183154 0.4589064 0.33046207
0001a0 d5 20 ce 3e dd 91 05 3f ef d6 20 3f e2 e2 06 3f
       0.40259424 0.52175695 0.6282796 0.52689946
0001b0 e1 9c d3 3e e7 fd 3d 3e 53 84 e7 3e 7c bb 1b 3f
       0.41330627 0.18553887 0.45218143 0.60832953
0001c0 c9 f4 c7 3e ca 40 fc 3e b2 fd a9 3e cf f6 07 3f
       0.39053944 0.4926818 0.33201367 0.53110975
0001d0 12 73 d9 3e 81 0e 0c 3f e7 c6 00 3f 33 e4 16 3f
       0.42470604 0.5470963 0.503035 0.58941954
0001e0 03 12 ba 3e 66 a0 12 3f 9c ab d5 3e 7d 04 0a 3f
       0.36341867 0.57276 0.4173249 0.539131
0001f0 35 57 0b 3f cb 42 e8 3e f3 7e 09 3f 62 d1 eb 3e
       0.5442994 0.4536346 0.53709334 0.46058184
000200 88 48 03 3f da c7 f7 3e e0 39 53 3e a4 97 99 3e
       0.5128255 0.48394662 0.20627546 0.29998505
000210 3e 9c 03 3f ff 1e ba 3e d2 84 9b 3e 01 61 21 3f
       0.5141028 0.36351773 0.3037477 0.6303864
000220 fe 56 4e 3e f9 18 11 3f 17 dc 80 3e 87 de 9a 3e
       0.20150372 0.5667873 0.25167915 0.302479
000230 f1 ec a7 3e 1a 5a f9 3e 8f 76 8a 3e e7 eb a7 3e
       0.3279796 0.48701555 0.27043578 0.32797167
000240 00 a6 47 3e 97 8e ab 3e 9d 8c cf 3e 87 19 ea 3e
       0.19496918 0.33507225 0.40536967 0.457226
000250 8c 9e 4c 3e c3 f0 c9 3e 4a 59 b6 3e af 6f c6 3e
       0.19982356 0.394415 0.35614997 0.38757083
000260 24 27 b7 3e 51 05 a3 3e 23 cf 09 3f 95 f6 a5 3e
       0.3577205 0.31839994 0.5383169 0.3241469
000270 39 8b af 3e 2e 30 0b 3f f8 c6 98 3e 4d bc 26 3e
       0.34285906 0.5437039 0.298393 0.16282769
000280 8b 89 df 3e e5 7c d0 3e 8c ce 84 3e ea 46 1d 3f
       0.43659624 0.40720287 0.25938833 0.6143633
000290 d4 41 fd 3e 35 6c f5 3e 15 05 b2 3e c3 f1 bd 3e
       0.49464285 0.47934118 0.34769502 0.37098512
0002a0 bd bd b6 3e e4 7e 94 3e c6 ae ef 3e a6 cd 0a 3f
       0.35691634 0.2900306 0.4681303 0.54220045
0002b0 98 e3 f3 3e c6 4c 11 3f 11 df d0 3e 08 bf d2 3e
       0.47634578 0.5675777 0.40795186 0.4116137
0002c0 e1 24 b7 3e ea ae 20 3f 42 1d 01 3f da 01 ce 3e
       0.35770324 0.627669 0.5043527 0.40235788
0002d0 2c a4 11 3f 6f e8 43 3d 4f 44 cd 3e 90 25 ed 3e
       0.5689113 0.047829088 0.40091178 0.4631772
0002e0 d6 14 9e 3e c0 00 83 3e ee e1 96 3e f8 dc a6 3e
       0.30875272 0.2558651 0.29469246 0.3259046
0002f0 e6 da ca 3e b4 c6 1b 3f da e7 8b 3e ed 2d d2 3e
       0.3962013 0.6085007 0.27325326 0.41050664
000300 2a e8 92 3e d0 51 88 3e 86 ac c6 3e f0 d3 00 3f
       0.28692752 0.26624918 0.388035 0.5032339
000310 a5 9b b9 3e b3 ba b7 3e 14 71 f4 3e 4b 74 86 3e
       0.3625156 0.35884628 0.47742522 0.262606
000320 8e f4 13 3f c9 60 88 3e 47 96 fa 3e 20 43 f9 3e
       0.57795036 0.2663634 0.48942778 0.48684025
000330 4a 3b da 3e 46 8b b2 3e 2c cc b7 3e d0 ac 7d 3e
       0.4262336 0.34871882 0.35897958 0.24772954
000340 5d 49 b1 3e b5 38 5a 3e 3c 35 be 3e e2 ba d8 3e
       0.34626284 0.21310695 0.3714999 0.4233008
000350 f0 ce d4 3e b5 04 bb 3e eb 86 fb 3e ca 92 ba 3e
       0.4156413 0.3652703 0.49126372 0.36440116
000360 3a 82 e9 3e 9d 5d 02 3f e9 e9 a6 3e 9f c6 b4 3e
       0.45607167 0.5092409 0.32600334 0.35307786
000370 6e 0b a3 3e a6 71 dd 3e 5f f6 e2 3e 1d d9 d6 3e
       0.31844658 0.4325077 0.4432859 0.4196252
000380 2a 41 3e 3e 1a 73 e0 3e 4a 98 aa 3e 3d 65 db 3e
       0.18579546 0.43837816 0.33319312 0.42850676
000390 ba d2 92 3e 22 34 d1 3e 6e ad e2 3e 48 5e 7d 3e
       0.28676397 0.40860087 0.4427294 0.24742997
0003a0 71 0b b0 3e 41 2c 04 3f 51 2d 0a 3f b7 d4 18 3f
       0.3438373 0.51630026 0.539754 0.5969958
0003b0 c6 52 cb 3e 2f bb 55 3e fd c4 10 3f fd d8 e9 3e
       0.3971159 0.20872186 0.5655058 0.4567336
0003c0 3e 45 9f 3e 28 2d 07 3f 07 d4 c1 3e 8c bd f5 3e
       0.31107515 0.5280328 0.37857077 0.47996175
0003d0 7b 08 f5 3e 34 81 01 3f 41 32 e5 3e 61 fa 05 3f
       0.47858033 0.50587773 0.44764903 0.5233517
0003e0 00 3c c0 3e cd 5e fe 3e 36 e5 ae 3e 77 72 05 3f
       0.37545776 0.49681702 0.3415925 0.52127784
0003f0 d9 a5 e7 3e da d9 f9 3e 89 19 ec 3e 88 48 00 3f
       0.4524372 0.4879902 0.46113232 0.50110674

fc2.bias f4 [64]
000000 a2 25 f1 3e 7e 74 c8 3e 45 95 44 bd 6f 19 d2 3e
       0.47099024 0.39151376 -0.047993917 0.4103503
000010 d9 a9 e0 3e e8 78 cf 3e 6a 46 c8 3e 8a 9f bd 3e
       0.43879583 0.40521932 0.39116222 0.3703578
000020 e3 f3 82 bb be 92 f8 3e 9e b7 bf 3e 3b 9e d4 3e
       -0.0039963587 0.48549455 0.37444776 0.4152697
000030 47 fa de 3e d8 8a cd 3e 5f ea a6 3e e3 4b ac 3e
       0.4355032 0.40144992 0.32600686 0.33651647
000040 d1 d1 c8 3e 45 ae 6c bd fd f5 b3 3e c3 10 f2 3e
       0.39222577 -0.057783384 0.35148612 0.47278413
000050 c0 1b bf 3f fb e4 15 bf 6c 6f 76 3c 65 00 ad 3e
       1.4930344 -0.5855252 0.0150412135 0.33789364
000060 32 c5 2f bc f0 51 0f b9 9e ea db 3e 72 ac b8 3e
       -0.010728167 -0.00013668067 0.42952436 0.36069065
000070 f4 ff bd bb f3 22 f3 3e 9f be f1 3e 35 6d a7 3c
       -0.0057983343 0.47487602 0.47215745 0.020437816
000080 68 07 ba 3e 0b 75 c7 3e 54 a9 b3 3e a8 52 66 bc
       0.36333776 0.38956484 0.35090125 -0.014057793
000090 13 89 bc 3f 4d 9e d5 bc e7 27 f5 3e 41 ba 55 bd
       1.4729332 -0.02607646 0.47882006 -0.05217958
0000a0 d2 a6 a2 3c d0 c3 ef 3e 23 8a be 3e 59 33 40 3d
       0.019854937 0.4682908 0.37214765 0.04692397
0000b0 48 72 9a bd db 2e 00 3f 78 23 ce bf 5c 24 d6 3e
       -0.07541329 0.50071496 -1.6104574 0.41824615
0000c0 59 c4 cf 3e 5c 68 02 3f f6 86 64 bd 9c 6d a8 bf
       0.4057949 0.5094049 -0.05579277 -1.315845
0000d0 91 ce e3 3e 2d 90 9c 3e 3f 23 fa 3e aa 48 c9 3e
       0.44493535 0.30578747 0.48855016 0.3931325
0000e0 a1 e9 c2 3e 74 c3 d3 3e 1d 61 d8 3e fd 57 c7 3e
       0.3806887 0.41360056 0.42261592 0.38934317
0000f0 61 87 be 3e ce 3d ef 3e 27 2e 88 3b 8c f9 c0 3e
       0.3721266 0.4672684 0.0041558924 0.3769039

fc3.weight f4 [32, 64]
000000 7b ab f5 3e bb b3 f8 3e 9c 8b 35 38 ed df ae 3e
       0.47982392 0.48574623 4.3283784e-05 0.34155217
000010 c1 70 ea 3e b5 2b 06 3f 8b f2 f4 3e 54 3f d3 3e
       0.4578915 0.5241044 0.47841296 0.41259253
000020 36 7b 5f bd 39 c5 ad 3e 37 7e 0d 3f fd 0e d0 3e
       -0.054560862 0.3393953 0.55270714 0.40636435
000030 a9 ad 04 3f 8f 99 00 3f 96 bf fe 3e 73 ef 0d 3f
       0.51827484 0.5023431 0.49755543 0.55443496
000040 b8 8e a8 3e 0a ca c0 bc 2c a0 ca 3e 09 30 e5 3e
       0.32921386 -0.02353384 0.39575326 0.4476321
000050 dd 54 d4 bf c3 c5 87 bf f6 bb c4 bf be e0 0c 3f
       -1.6588398 -1.0607227 -1.5369861 0.5503043
000060 29 c0 96 bd e3 ae 46 bd 85 f9 ff 3e 13 1b a5 3e
       -0.073608704 -0.04850663 0.49995056 0.32247218
000070 8b f9 bb bd 09 45 c1 3e 15 24 f3 3e 64 c9 18 bd
       -0.09178456 0.37747982 0.47488466 -0.037301436
000080 67 88 fb 3e d0 c6 be 3e e0 14 b8 3e 0c 22 dc bd
       0.49127504 0.37261057 0.35953426 -0.107486814
000090 ba fc b5 bf ff c7 fa 3d e9 a3 08 3f 9b d4 92 bd
       -1.4217751 0.122451775 0.5337511 -0.071694575
0000a0 2d 25 de 3d 08 23 cd 3e fa 69 02 3f 33 30 0c 3d
       0.108469345 0.4006579 0.5094296 0.034225654
0000b0 34 b9 5a bd e2 59 bd 3e 05 1c dc bf b0 c6 ca 3e
       -0.05339928 0.36982638 -1.7196051 0.39604712
0000c0 2f a1 e4 3e bf ee d6 3e f5 0f 4a bd 81 62 22 bf
       0.44654223 0.41979024 -0.049331624 -0.63431555
0000d0 3f cd a5 3e 3c a3 bd 3e b1 61 d0 3e 0a a9 0d 3f
       0.32383153 0.370386 0.40699533 0.5533606
0000e0 80 b5 d8 3e 71 30 ac 3e ee 85 f2 3e d9 97 f6 3e
       0.42325974 0.33630708 0.47367805 0.48162726
0000f0 33 ef e3 3e da 19 f9 3e 56 fb 08 bc a0 8c b3 3e
       0.44518432 0.48652536 -0.008360704 0.35068226
000100 f4 ad 06 3f fb c9 f6 3e 19 76 e0 3d 7e 83 e5 3e
       0.5260918 0.48200974 0.10960025 0.44826883
000110 d8 97 fb 3e 78 e2 b7 3e 81 14 11 3f de b0 ab 3e
       0.49139285 0.3591497 0.5667191 0.33533376
000120 67 9b 25 bd 91 e5 14 3f 88 15 fb 3e 02 26 c3 3e
       -0.040431406 0.5816279 0.49039865 0.38114935
000130 ac 91 c8 3e d3 3f 0d 3f 9c 71 f1 3e 16 78 14 3f
       0.3917364 0.55175513 0.4715699 0.57995737
000140 4b d3 0b 3f 09 eb c9 bd aa ca bd 3e 62 7e 11 3f
       0.5461928 -0.098592825 0.37068683 0.5683347
000150 f7 29 d7 bf 64 e0 84 bf 2d 45 ae bf d9 99 04 3f
       -1.6809682 -1.0380979 -1.3614861 0.5179725
000160 da cd 80 3d bc dc 0f 3e 21 90 0f 3f 38 a1 b5 3e
       0.06289263 0.14049047 0.560793 0.35474563
000170 d7 57 32 bd 8a 6c aa 3e 66 d2 0b 3f a5 4c 6c bd
       -0.0435408 0.33285934 0.5461792 -0.05769028
000180 2c 56 e2 3e 24 f3 d2 3e 55 53 bb 3e db c4 b6 3c
       0.4420637 0.41201127 0.36587015 0.022310665
000190 99 d4 ad bf 34 90 83 3d cd 78 01 3f b1 bb 02 3e
       -1.3580505 0.06423989 0.5057495 0.12766911
0001a0 7c 05 f3 bc db f1 fc 3e 1d 2a 06 3f 59 87 a2 bd
       -0.029665701 0.4940327 0.5240801 -0.07935972
0001b0 ad 58 04 3e 05 0c 15 3f 26 f3 f2 bf 6a 64 b8 3e
       0.12924452 0.58221465 -1.8980453 0.3601411
0001c0 f3 34 0f 3f b5 29 b4 3e 24 e5 38 3d cb 22 3a bf
       0.5594017 0.3518807 0.0451404 -0.7270934
0001d0 6d c3 0d 3f b8 d7 04 3f 30 25 01 3f 2c e4 f4 3e
       0.5537632 0.5189166 0.5044737 0.4783033
0001e0 a1 a3 e9 3e f9 92 ee 3e 81 5b ef 3e c2 c6 fd 3e
       0.4563265 0.46596506 0.467495 0.49565703
0001f0 1b 54 d7 3e 64 15 b4 3e e7 92 19 bd 09 cf e4 3e
       0.42056355 0.3517257 -0.037493613 0.44689205
000200 7f 14 aa 3e cb 47 0e 3f f9 5b ea bc 58 45 fd 3e
       0.33218762 0.555783 -0.02860831 0.49466968
000210 ce 21 07 3f 4b 4a bc 3e a4 8f 01 3f 0d 5c f4 3e
       0.52785957 0.3677543 0.50609803 0.4772648
000220 37 45 3f bc d8 34 a5 3e 78 6b c4 3e f9 58 d2 3e
       -0.011674217 0.3226688 0.38363242 0.41083506
000230 f4 78 ab 3e bc 5b a9 3e 92 ef c1 3e c9 6e 0d 3f
       0.33490717 0.330778 0.3787809 0.5524717
000240 fd 51 bc 3e 6c 41 12 bd a5 b5 fe 3e b2 7b 04 3f
       0.36781302 -0.035706922 0.4974796 0.51751244
000250 78 c9 e3 bf c1 1b 84 bf 3f 0c b9 bf 5f 2e de 3e
       -1.7795858 -1.032097 -1.4456862 0.43394753
000260 be 04 cf bd 70 6d 43 bd 24 dc df 3e 40 ca 08 3f
       -0.101083264 -0.04771179 0.4372264 0.5343361
000270 8a 9a 4b bd 52 aa e2 3e bd ec f6 3e e7 1c da bd
       -0.049707927 0.4427057 0.48227492 -0.10650044
000280 5a ac cb 3e b3 81 09 3f 68 06 e2 3e aa 68 8f bd
       0.3977993 0.5371353 0.44145513 -0.07002385
000290 50 a0 bb bf d3 70 a6 bd 14 2f e2 3e b4 b1 b2 bc
       -1.4658298 -0.08126988 0.44176543 -0.021813251
0002a0 32 8e 88 bd 20 47 05 3f 3a 2e 0b 3f 72 53 b7 3d
       -0.066677466 0.52061653 0.5436741 0.08951463
0002b0 13 3a 75 bd ff 13 c6 3e 72 73 e7 bf 12 02 eb 3e
       -0.059869837 0.3868713 -1.8082106 0.45900017
0002c0 72 80 b9 3e b0 08 bc 3e 83 50 55 bd e6 e0 1d bf
       0.36230808 0.36725378 -0.052078735 -0.6167129
0002d0 dd dc d5 3e 79 f7 f3 3e a5 5d b1 3e 0b d3 ba 3e
       0.41770068 0.47649744 0.34641758 0.36489138
0002e0 01 c1 db 3e 67 6c 0a 3f 42 43 08 3f 1b f5 01 3f
       0.42920688 0.5407166 0.5322763 0.50764626
0002f0 fe ca b8 3e 48 84 9f 3e 68 a2 91 bd 25 19 e1 3e
       0.3609237 0.3115561 -0.07111055 0.43964496
000300 a9 72 eb bd e2 24 8c 3d ef 6f b5 bd ea c4 a7 bd
       -0.11496479 0.06842972 -0.0885924 -0.08191855
000310 21 c5 08 3d 12 dd bc bd 54 ac db 3d 64 b2 90 3c
       0.03339112 -0.09221853 0.10726228 0.017663188
000320 70 83 f8 bd b9 f8 ab bd 29 3e 74 3c 43 1a d2 3d
       -0.12134445 -0.083970495 0.014907398 0.10258915
000330 4e 81 48 3d 75 13 db 3b 9c c1 82 bd d6 a5 ae bd
       0.04895144 0.006685669 -0.06384584 -0.085277244
000340 57 6c c8 3d eb 31 25 bd e9 c7 e2 bd c3 a8 8d 3c
       0.09786289 -0.04033081 -0.11073286 0.017292386
000350 6a b6 ae bd c5 6e a7 3d 20 18 8b 3b e3 a5 09 3d
       -0.085308865 0.081754245 0.0042448193 0.033605468
000360 54 2c 5e 3d 92 b0 dd bd fe e8 c2 3d ea 2e 03 be
       0.054241493 -0.10824694 0.09517096 -0.12810865
000370 53 bf f9 bd 86 9d da bd b4 77 a0 3c 49 91 a6 bd
       -0.12194695 -0.106745765 0.019588329 -0.0813318
000380 55 4c 09 be 12 53 ac bc 9c c1 c0 bd 57 f0 ed ba
       -0.13408025 -0.021035705 -0.09411928 -0.0018153292
000390 ee dd e1 bc dc 88 b5 bd c4 73 11 3d d8 db 85 3c
       -0.027571645 -0.088639945 0.035510793 0.016340181
0003a0 0d bd 9b bc dc 0d ff 3c 25 63 95 bd 4c c3 c1 bc
       -0.019011045 0.031134538 -0.07294301 -0.023652695
0003b0 e9 c5 9d bd 00 3c 93 bd 14 e4 04 be 91 25 9f 3d
       -0.07703764 -0.071891785 -0.1297763 0.07770837
0003c0 c3 c1 8e bd 2b b8 6e 3d 91 1d 5c bd 20 d7 e8 bd
       -0.06970551 0.058281105 -0.053739134 -0.11369157
0003d0 4d 8a fa bd e5 88 e6 bc 77 16 d5 bd df db 27 3c
       -0.1223341 -0.028141448 -0.104046755 0.010245292
0003e0 1a 89 2e bd 93 63 86 bd 2d 13 85 bd a8 ac 28 bd
       -0.04261122 -0.06561961 -0.06497798 -0.041180283
0003f0 d7 41 02 be 33 6c 6b 3d d9 6e 7e 3d d1 47 f0 bc
       -0.12720428 0.057476234 0.06211743 -0.02933112

fc3.bias f4 [32]
000000 92 63 b7 3e e2 0d 65 3e 45 f3 90 3e fc 8b 94 3c
       0.35818154 0.22368577 0.283106 0.018133156
000010 63 f0 8d 3e af ce 82 3d 63 7f 70 bd 15 2b f3 bd
       0.27722463 0.06387078 -0.058715235 -0.118734516
000020 48 c8 00 be 81 9e 6d 3e e5 84 90 bd a8 66 72 be
       -0.12576401 0.23204996 -0.070565976 -0.23671973
000030 e5 4f 98 3e 48 81 21 bd 0f 23 04 3d 97 c6 74 3d
       0.29748455 -0.039429933 0.032259997 0.059759703
000040 f9 2e fa bb 8b a9 7a 3e e7 7a f1 3c d4 77 54 bd
       -0.007634994 0.24478738 0.02947755 -0.05187209
000050 23 17 60 bc 92 57 ab 3e 40 af 98 be 34 95 b8 3e
       -0.013677391 0.33465248 -0.29821205 0.36051333
000060 b8 9e b7 bd 50 10 ee 3c b4 2d d3 bd 13 7a e9 3e
       -0.0896582 0.029060513 -0.103114516 0.45600948
000070 a9 85 41 3e 07 8d 92 3d 2b d7 0a 3d 71 e3 93 3e
       0.18898644 0.07155805 0.033896606 0.28884462

fc4.weight f4 [1, 32]
000000 7b 00 24 3f 8b eb fe 3e 21 f4 24 3f f9 25 90 bd
       0.64063233 0.4978908 0.6443501 -0.07038493
000010 f1 f0 1c 3f 73 90 b7 bd 19 7e a5 bd 0a 83 7f bb
       0.6130515 -0.089630984 -0.08080692 -0.0038988017
000020 1c 13 26 3d 47 48 05 3f 25 b6 70 bd c9 bb 0f c0
       0.040545568 0.5206341 -0.058767457 -2.2458365
000030 40 6a 23 3f 00 91 fc 3a 75 a5 e6 b9 ec 7c aa ba
       0.63834 0.0019269288 -0.00043992294 -0.00130072
000040 c0 e9 d9 ba 98 b3 25 3f 13 cd 61 bc b3 2f 32 bd
       -0.0016625449 0.64727163 -0.013781804 -0.04350252
000050 05 12 06 c0 86 ba 22 3f a6 cb 15 c0 a5 32 fc 3e
       -2.0948498 0.6356586 -2.3405547 0.4925739
000060 55 65 9d bd 58 b5 5a bc e1 42 00 be 88 97 fa 3e
       -0.07685343 -0.0133489 -0.12525512 0.48943734
000070 75 fe e3 3e 06 1e 8a bd b0 17 0d be 60 0b 17 3f
       0.44530073 -0.06744008 -0.13778567 0.5900173
