ann_model_full.pth (torch, 49167 bytes, 7 tensors)

weight f4 [128, 8]
00000000: d94d 2e3f a361 ccbc d5fb 8cbe 602e b93e
00000010: 28bb 3bbe 2d99 d4be 97a7 9b3e 11fb 6d3e
00000020: 939b 083f 965b fb3e 6624 033e 46da 923d
00000030: 2184 923e 0d38 a13e 9072 e93e 9340 74bf
00000040: c0ec c93e 1b12 ba3c 688a 263f 3663 9b3e
00000050: b500 aebe b7c2 4dbc 2b51 733e 6536 373f
00000060: 094c 163d 7eeb b03d 883a 973e cb73 c93e
00000070: 7c9e 1e3e c6c2 a73b cf5d 323f 4365 d53e
00000080: f04c 0bbe f6b5 6bbe 8ff4 1ebf 471b b53e
00000090: 60a8 e8bd 435c 99bc bcfe f63e 544b 3c3f
000000a0: 4b6b de3e 179a a5be 5336 b7bd b45c 44bd
000000b0: 8778 233e 8486 50be 7bb2 a83e ecff b8be
000000c0: 54ac 573e ffa4 0cbe 489b dc3e 5bcb e83e
000000d0: 77a5 a93d e495 a93c 5740 1e3f f619 f13e
000000e0: cb5e 8e3e 97f6 223e bc8d 63be 4553 1e3c
000000f0: e703 91be 2919 babe 3fa4 403f 2ac1 a73e
00000100: 7cf0 84bd f65d c33e b553 92be c9f0 ecbd
00000110: 07dc 0abf eb6e d3be ea0c 173f 9b9d fd3e
00000120: be15 a13e 9a10 943d 64eb 18be d752 9bbc
00000130: 22dd 05bf 3d23 1cbf 8d09 133f 94b3 c33e
00000140: 4c79 fa3c 5957 83be 79b5 463e 288d 7abe
00000150: da75 cdbe 3920 8dbe 5a56 213f 0061 52be
00000160: bf35 b2bd 67f1 933d 0b38 8bbe c048 e0bc
00000170: d2bf 1b3e 5324 2ebd 380d 4f3f a4de 0b3f
00000180: 39b9 a53e 1e9d 033e 590e 043e 5b90 57bb
00000190: 5aaf 6b3e d394 fc3d 43b4 803f 529d 0dbf
000001a0: 5d94 8cbd 6d3b 803e 9f0e 6ebd 654f d7bc
000001b0: b344 3e3e 556d 44be 8995 303f 9164 a7bd
000001c0: d412 013f fb7b 613d 8527 45bf ad70 b83e
000001d0: 9b76 b43e 8dac b63d 7948 5f3e 6801 1b3f
000001e0: be5c 5d3f 55cb 2f3f e5de 6f3e ddd1 a83e
000001f0: bebc 0b3e a2ee 23be 7de7 803f 626e cfbc
00000200: 0cef e0bd c6a6 993e b29d 13bf 135a ed3d
00000210: 201b 07be ed14 b2be edf7 193f c6ab 303f
00000220: 0585 e6bd 2790 0c3f 6f97 bb3d b2c1 163f
00000230: 1174 27be 80d4 873e bfc8 7d3f 24f9 eb3e
00000240: c639 a9bd a953 cebe a6d4 7e3e 9843 99be
00000250: 2d88 14bf 843d 79bd 7f12 f53d b1f9 3bbf
00000260: 4b35 6b3d 3b73 233e 4091 4abe 7bda 3b3d
00000270: b113 87be 2c09 0bbf 5e9b 023f ecc7 163f
00000280: b429 763e 0d3b ca3e b55a 503e 6a82 e03e
00000290: faba 8e3e 1cd3 d23e d2e8 763f 5855 0c3e
000002a0: db30 f7bb a868 7d3e f807 1cbd 1951 d53e
000002b0: 09d6 03be 4b0c a2be d653 3c3f d008 91bd
000002c0: afc2 713d da2a 8b3e d417 3dbf 3bd4 9c3e
000002d0: a5bf 723e 05ad 13bd 2837 f43e 59a0 f43e
000002e0: 4a70 d93e 303f 3d3e eef0 cf3e 96d2 0a3f
000002f0: 093c a53d d02b d2be a079 e93e 5f27 643f
00000300: 0d85 093e d0e1 193e 41a9 ee3d ecdd 563e
00000310: 2294 a3be 2073 5cbe 3568 f03e 5e69 37bd
00000320: 0522 5b3e d6b6 cbbe 63b5 183e 34c0 18be
00000330: a0c0 e6be 8f3c 1bbf c80c ac3e 11d5 413f
00000340: 1ef5 773e 6a5c e33d bdd4 8cbd 097d 10bd
00000350: cd71 61be eb71 8cbe 9a48 283f 7722 85be
00000360: 582a 603e 44bc 863d 93d2 c9bd babc 77be
00000370: 8658 023d 12ff 64bd 141c f73e 3e6b c7bd
00000380: 107d 653d 5afa 1cbb 2536 1abd 7cf4 0f3e
00000390: eb90 39bd 9347 fbbc 83fd 2c3f 983f e9bc
000003a0: a518 87bd cd18 ed3e dfa6 94be ed11 573e
000003b0: 2ae5 493e cf5c 023f 89dd 653f ad43 32bf
000003c0: 214a 863d c410 f1bd 331b b4be 426c bc3c
000003d0: 54ee 2dbc e3ad 83bd 6aa1 663f 580a f13d
000003e0: f386 0b3f bd89 a83e f6f1 43bc 4845 f73e
000003f0: 94b3 9e3e 8142 613e fa9a 0e3f 14f0 5dbf
0.68087536 -0.0249489 -0.27535883 0.36168194 -0.18333113 -0.41523114 0.30401298 0.23240305
0.5336239 0.49093312 0.12806854 0.071705386 0.2861643 0.31488076 0.45595217 -0.9541103
0.39438438 0.022713711 0.6505494 0.3034913 -0.33984914 -0.012558631 0.23761432 0.71567374
0.036693607 0.086386666 0.29536843 0.39346156 0.15490144 0.0051196543 0.6967439 0.4167882
-0.13603568 -0.23018631 -0.62091917 0.35372373 -0.1136024 -0.018720752 0.48241222 0.7355244
0.43441233 -0.32344124 -0.089459084 -0.04793997 0.15963946 -0.20363814 0.3294867 -0.36132753
0.21061832 -0.13734816 0.4308722 0.45467648 0.08283513 0.020701356 0.61816925 0.4709012
0.27806696 0.15914379 -0.22222036 0.009663408 -0.2832329 -0.3634732 0.7525062 0.3276456
-0.06491181 0.38157624 -0.28579488 -0.115693636 -0.54241985 -0.4129556 0.5900408 0.49534306
0.314619 0.07229729 -0.14933544 -0.0189604 -0.52290547 -0.6099127 0.5743645 0.38222945
0.030575417 -0.25652578 0.19405164 -0.2446791 -0.40128976 -0.27563646 0.6302239 -0.20544815
-0.087016575 0.07223778 -0.27191195 -0.02737844 0.15209892 -0.04251511 0.80879545 0.546366
0.32367876 0.12852904 0.12896098 -0.003289244 0.2301611 0.123330735 1.0055012 -0.55318177
-0.068642356 0.25045338 -0.058119413 -0.026282975 0.18580894 -0.19182332 0.6897817 -0.081734784
0.50419354 0.055049878 -0.77013427 0.36023465 0.3524674 0.0891963 0.2180499 0.6054902
0.8646964 0.68669635 0.23424871 0.32972613 0.13646218 -0.16009 1.0070645 -0.02532119
-0.109830946 0.3001005 -0.576625 0.11589446 -0.13193941 -0.3478159 0.6014393 0.69012105
-0.1125584 0.5490746 0.09159743 0.58889306 -0.1635287 0.26529312 0.9913444 0.46088517
-0.082629725 -0.40298203 0.24885806 -0.29934382 -0.5802029 -0.06084968 0.119664185 -0.73427874
0.05742387 0.15961926 -0.19781971 0.045862656 -0.2638221 -0.5431087 0.5101832 0.58898807
0.24039346 0.39498177 0.20347102 0.43849498 0.27877027 0.4117669 0.96449006 0.13704431
-0.007543666 0.24746954 -0.038093537 0.41663435 -0.12874617 -0.31650004 0.73565423 -0.07081759
0.059023555 0.2718113 -0.73864484 0.3063067 0.23705919 -0.036053676 0.4769833 0.47778586
0.42468482 0.18481135 0.40613502 0.5422758 0.080680914 -0.4104905 0.45600605 0.89122576
0.13429661 0.15027547 0.11653376 0.20983094 -0.31948954 -0.21528292 0.46954504 -0.04477822
0.21399696 -0.3978793 0.14912944 -0.1491707 -0.45068836 -0.6063928 0.336035 0.7571574
0.24214599 0.11101611 -0.06876514 -0.035275493 -0.22016068 -0.27430663 0.6573578 -0.26002857
0.21891153 0.065788776 -0.09854617 -0.24193087 0.031822704 -0.055907317 0.4826361 -0.09737252
0.056027472 -0.0023952932 -0.037649292 0.14058107 -0.04530422 -0.030673778 0.6757433 -0.028472707
-0.065964974 0.46307984 -0.29033563 0.21002932 0.19716325 0.50922865 0.8979116 -0.69634515
0.06557108 -0.11770776 -0.35177 0.02300084 -0.010615904 -0.06429651 0.9009005 0.11769551
0.5450279 0.32917586 -0.011959543 0.48295045 0.30996382 0.21998025 0.55705225 -0.86694455

bias f4 [128]
00000000: 6fa8 773f e54e 3f3f 08a7 c13e 591b 2d3f
00000010: 12bb 9b3e 2ad5 2b3f db4d db3e 0af7 803f
00000020: f403 4e3f 1934 2e3f d8e0 cb3e 7e68 f53e
00000030: 29b7 143f 7b63 893f c185 a73e 28b3 7b3e
00000040: 7ea4 fb3e d93a 983e 9293 873e 96f9 493f
00000050: b678 e13d 9e62 8d3f 5d77 ec3e c5b4 203f
00000060: a201 6b3f 5974 1d3f d5db 8c3f ce7d 813f
00000070: 188d 7f3f 9086 143e 75d2 543f 8550 053f
00000080: 8a29 fa3e cfed 703f 1b9d 593f b922 3c3f
00000090: 39a1 2a3f 4363 123f 439e 8c3f 29cb 433f
000000a0: 5d3c 873f 9208 013f aadc bb3e 45bc 583f
000000b0: 6907 963f c976 8f3f e187 6a3f 1b19 4a3f
000000c0: 12f0 e43e 89e1 c03e 5762 0d3f b3f5 853f
000000d0: 068f 773e 089e 4f3f 423a 843f 8326 8d3f
000000e0: eb60 0c3f d61e 033f b0a7 973e 1df1 ec3e
000000f0: f529 033f 2e56 493f 4fec 853f 1c18 dd3e
00000100: 014f fe3e 1917 933f 732a 6d3f f8e8 9c3e
00000110: cf6d 8e3f 83e5 323f cd8b 933f 8130 553f
00000120: 9ddf 9a3f d9c4 453f c663 523f c441 dd3e
00000130: 85dd 5f3f 67fd 1a3f 2407 ba3e 4a7f 493e
00000140: 12ac cf3e ad97 583f dd95 0e3f 5e08 0a3f
00000150: b42a 853f 0440 893f 955b c93e 23fa 0c3f
00000160: 60d7 793f 09dc 463f 3f23 0c3f 28c2 d43e
00000170: a8b6 ab3e 6cb0 9c3e 380f b53e 4095 323f
00000180: a081 163f c30e 9e3e 99bb 6d3f da38 093f
00000190: 1dd9 a83d 22d7 1a3f f555 793f 28c2 583f
000001a0: a42f 823f 32f6 0f3f ffff 213f 6ad1 803e
000001b0: d8e1 003f 4678 1d3e 47a9 343f c5a9 063f
000001c0: 74f0 7b3f 93bd 923f 7df9 283f ddcf 1b3f
000001d0: ccdb c43e b62e 2a3f 3ec2 763f 0a87 643f
000001e0: b1df 7d3f 810d 9f3e c01f 403e 7886 6f3f
000001f0: 8b5d 243f 412b 123e 9814 163f 42c9 863f
0.96741384 0.7472976 0.37822747 0.67619854 0.3041616 0.6712214 0.42832837 1.007539
0.8047478 0.68048245 0.3981998 0.47931284 0.5809198 1.0733484 0.32719234 0.24580061
0.49148935 0.29732397 0.26479775 0.7889646 0.11009352 1.104572 0.46184817 0.6277583
0.91799366 0.6150566 1.1004587 1.0116518 0.99824667 0.14504457 0.8313363 0.5207599
0.48859817 0.9411287 0.8500535 0.7349048 0.66652256 0.5718271 1.0985798 0.7648187
1.0565296 0.504037 0.3669179 0.84662277 1.1721011 1.1208125 0.91613585 0.7894456
0.4471441 0.3767207 0.5522818 1.0465606 0.24175653 0.8110051 1.0330279 1.1027378
0.54835385 0.51218927 0.29620123 0.46277705 0.51235896 0.78647125 1.0462741 0.43182456
0.4966965 1.1491424 0.926429 0.3064649 1.1127261 0.6988146 1.1527039 0.83277136
1.2099491 0.7725349 0.8218349 0.43214238 0.87447387 0.6054291 0.36333573 0.19677463
0.40560967 0.8460644 0.55697423 0.5391902 1.0403657 1.0722661 0.39327684 0.5506918
0.9759426 0.77679497 0.5474128 0.4155438 0.33537793 0.3060335 0.35363173 0.6975899
0.5879154 0.30870637 0.92864376 0.53602374 0.08244536 0.60484517 0.97396785 0.8467126
1.0170789 0.5623504 0.63281244 0.2515977 0.5034461 0.15377912 0.70570797 0.526028
0.9841378 1.1464103 0.6600569 0.6086405 0.38448942 0.66477525 0.9639014 0.89268553
0.9916945 0.3106499 0.18762112 0.9356456 0.64205235 0.14274313 0.58625174 1.0530169

weight f4 [64, 128]
00000000: accf 043f 5218 ac3e aece cb3e f327 ee3e
00000010: fc32 953e 1d6a 9f3e 1f6a fb3e f724 e53e
00000020: d313 d83e 3881 e43e 1c83 8d3e 07f1 843e
00000030: ca3a ff3e 9abe 0d3f a23d 2a3e 9837 0d3f
00000040: 7718 e33e 16dd 0c3f c882 8e3e b218 a93e
00000050: 07d8 0f3f ce73 f93e 3a5a 063f 7233 b93e
00000060: 873e 163f 7a4d 9b3e 6fb7 033f 46ff f53e
00000070: cff4 ea3e d458 093f b1be 8b3e b6ea c53e
00000080: 2a8e 583e 9531 003f f4f0 fc3e fb7a 9b3e
00000090: 3a07 ac3e e383 073f 0ca8 d73e c410 df3e
000000a0: 7fc6 213f 433e d03e 7aae a03e 559c b43e
000000b0: 95d3 073f 931a bf3e a647 103f 4c06 0a3f
000000c0: 8d19 963e 60ff e33e 6e42 bb3e 539a e53e
000000d0: 15ca 0a3f a65e f03e 2a7f 0e3f 4924 ed3e
000000e0: b860 563e ee3c c03e 916b 923e 6f12 b93e
000000f0: 27a0 803e f068 de3e 1dcb 123f 4531 c03e
00000100: d650 cc3e 02f0 d93e 173b 0c3f 9ef4 f43e
00000110: 0b04 fe3e a4f8 a13e efc2 103f a67c bc3e
00000120: c6fb dc3e 2961 9d3e 18ef 133f f00d b93e
00000130: 8398 af3e 7211 c63e 1b0f 9b3e 48fb c93e
00000140: 3625 d13e e36d a43e 2ae4 133f a84e cc3e
00000150: f5c0 f43e af81 f83e b589 073f c399 f13e
00000160: b5d8 013f 5530 dd3e 7d0e b43e 7014 f73e
00000170: c911 df3e c309 8e3e e1c6 153f 3f88 8d3e
00000180: 4515 1c3f bb24 203f f39f dd3e e7d9 fc3e
00000190: 4eb5 da3e e89d c83e 6bba 0b3f aca3 813e
000001a0: c8bb c63e c788 d03e f2b3 bc3e 4644 e83e
000001b0: ecab d83e dfc7 0d3f 7a33 d13e 4392 f33e
000001c0: f2f1 073f 1756 103f 6838 a73e 2723 ec3e
000001d0: 6f52 0d3f c7ba 9d3e 52e3 003f b92a 043f
000001e0: eee5 0e3f 693d 923e 0af1 e43e a76e c33e
000001f0: 35f1 fa3e 1393 e53e fc9a 073f f802 0a3f
00000200: 80b3 f73e 45ee d23e 1c0e d43e f60d e43e
00000210: 0115 7b3e 78c7 9a3e 04de d63e 8b11 073f
00000220: 3a8a 7c3e fb27 b53e 446f 373e 0eb4 943e
00000230: f496 073f cf88 e23e 7536 633e ed63 093f
00000240: da05 e13e b883 f23e 10e2 4a3e 7694 c03e
00000250: 0cb7 d73e d567 093f 9fb2 ff3e 3129 aa3e
00000260: 8dac 0e3f 7ec0 af3e 28e6 dd3e 47f3 ce3e
00000270: 2e3c 043f 6c39 053f 1165 953e f99a af3e
00000280: 75a2 9b3e 0870 003f ac30 b23e df02 993e
00000290: 8c24 ae3e 8a55 f33e 1dc5 0c3f e9d2 d93e
000002a0: abd5 f43e d4f4 e33e 6cbc 863e d853 c63e
000002b0: d14f f73e 8d6a 9c3e b294 103f 4dd3 043f
000002c0: d64f ac3e 9fe8 f83e d18c fb3e 33bb d23e
000002d0: 0781 153f 42ce d63e 7636 f73e 4e10 f03e
000002e0: 2b20 993e d742 063f fc55 8f3e af4f bb3e
000002f0: 1b7e a53e 0154 d73e e998 173f 74b7 b43e
00000300: cc61 9a3e e916 ce3e 4e9a f43e 199d e13e
00000310: 062b dc3e a498 9b3e 3280 0b3f d524 953e
00000320: f5bd eb3e 3ec6 e13e e06a 1d3f 9afd c13e
00000330: f59c c43e b735 bb3e f792 cf3e 8ca1 e63e
00000340: aa4c b03e 1bd8 bf3e 478d 173f be30 c63e
00000350: 2d6e 103f b330 193f 7fe9 e13e a160 eb3e
00000360: 8904 033f b683 d13e 850c ca3e c1f6 dc3e
00000370: 4a0f 973e be7d 823e e1d0 1b3f 8cd3 793e
00000380: 311a 053f f9d1 063f 8e32 cd3e abfe d03e
00000390: 0280 f83e 2f6c ba3e 4bbb 0e3f ea63 8c3e
000003a0: bada d23e 03a0 b03e e568 cd3e 129e d63e
000003b0: d6df 973e 7d04 0a3f a1bc ae3e 4bbe ec3e
000003c0: 437d ff3e ffca fd3e bc6e 9b3e a95a b23e
000003d0: 1239 023f 8b38 863e c1cf e53e 77d0 093f
000003e0: 262c e73e fd0b 1f3e 7492 0e3f 1035 e73e
000003f0: 1a51 fb3e b55a c83e 086d 133f bdef 0b3f
0.5187938 0.33612305 0.39806122 0.46514854 0.2914046 0.31135646 0.491044 0.44754764
0.42202625 0.44629836 0.2763909 0.2596514 0.4984954 0.5536896 0.16625074 0.55162954
0.44354603 0.5502485 0.27834153 0.33026654 0.56189007 0.48721164 0.52481425 0.36172062
0.5868916 0.30332547 0.5145177 0.4804632 0.458899 0.53651166 0.27293923 0.38655633
0.21147981 0.50075656 0.49402583 0.30367264 0.33599263 0.5293562 0.42120397 0.4356748
0.63193506 0.40672502 0.31383115 0.35275522 0.53057224 0.37324962 0.56359327 0.5391586
0.2931637 0.44530773 0.3657412 0.44844303 0.542146 0.4694721 0.55662787 0.46316746
0.20935333 0.37546486 0.28597692 0.36146876 0.25122187 0.43439436 0.57341176 0.3753759
0.39905423 0.42565924 0.54777664 0.47842878 0.4961246 0.3163501 0.56547445 0.3681385
0.43160838 0.3073819 0.57786703 0.36143446 0.34296045 0.38685185 0.30284962 0.39449525
0.40848702 0.32115087 0.57770026 0.3990376 0.47803465 0.4853644 0.529445 0.47187623
0.50721294 0.43200937 0.35167304 0.4825778 0.43568256 0.27741823 0.5850659 0.2764301
0.60969955 0.62556046 0.43286094 0.49384996 0.4271645 0.39182973 0.54581326 0.25320184
0.3881514 0.40729353 0.36856037 0.45364588 0.42318666 0.55383104 0.40859586 0.47572526
0.53103554 0.5638136 0.32660222 0.4612057 0.5520391 0.30806562 0.50346863 0.5162769
0.55819595 0.28562477 0.44715148 0.3817036 0.4901215 0.4483877 0.5297086 0.5391078
0.48379135 0.4119741 0.41417015 0.445419 0.24519731 0.30230308 0.4196626 0.52761143
0.24662104 0.35382065 0.17913538 0.2904362 0.5296471 0.44245002 0.22188742 0.536681
0.43949777 0.47366118 0.19812799 0.37613267 0.4213184 0.5367406 0.49940965 0.33234552
0.5573204 0.34326547 0.43339658 0.4041998 0.51654327 0.52040744 0.2917867 0.34297922
0.30397382 0.50170946 0.3480276 0.29885003 0.34012258 0.475262 0.5498827 0.42543724
0.47819266 0.44522727 0.2631563 0.38735843 0.48303083 0.30550042 0.5647689 0.5188492
0.3365466 0.48614976 0.49130872 0.41158447 0.58400005 0.41954237 0.48283738 0.4688744
0.29907355 0.5244574 0.27995288 0.3658423 0.32322773 0.42056277 0.592177 0.35296214
0.30152738 0.40251854 0.47773975 0.44065168 0.43001574 0.30389893 0.54492486 0.29129663
0.46043363 0.4409656 0.61491203 0.37888795 0.38401 0.3656442 0.40541813 0.45045125
0.3443349 0.37469563 0.5919995 0.38709062 0.56418115 0.59839934 0.44123456 0.4597216
0.51178795 0.409208 0.39462677 0.43157008 0.29503852 0.2548656 0.608656 0.24397105
0.5199309 0.5266414 0.40077633 0.40819296 0.48535162 0.36410663 0.55754536 0.27419978
0.411825 0.3449708 0.4011909 0.41917473 0.2966296 0.539131 0.34128287 0.46238932
0.49900255 0.49568936 0.3035792 0.34834793 0.5086833 0.26215014 0.44885066 0.5383372
0.4515087 0.15531917 0.5569222 0.4515767 0.49085313 0.39131704 0.57588243 0.54662687

bias f4 [64]
00000000: e1a9 fb3e 2915 b43e 4239 ae3e 8ab8 d63e
00000010: 63a7 c23e 1372 dc3e aea4 b63e 73d0 b5bd
00000020: 04ce ac3e d500 f83e a409 82bd a005 c13e
00000030: eeee 943f 1e31 2abd 49e4 b6bd 1b44 aa3e
00000040: e6d2 10bd be2b 26bb cbc5 853d 4a57 f83e
00000050: ad8b b23e ffcc de3e 3fb7 f13e c900 d53e
00000060: fb7b c03e 109f 8aba 7fa4 b8bc ea0f d53e
00000070: bb75 9bbd 1a7a e53e 750a a03f b2a3 40bd
00000080: 4a0c be3e a445 cabf 1444 d23e 85c0 bd3e
00000090: 5301 b63e d294 cc3e 0e51 f73e 505d c33e
000000a0: 8a47 ca3e a69d f93e 30a3 d93e 02f5 f83e
000000b0: 97ca a33f 170c e93e 0e4a f33e bf60 aa3e
000000c0: 8f6b a53e 5364 d33e 2b34 cd3e 689f f23e
000000d0: 3c2e d03e a66d 89bd dcbf 9bbd 2d5a be3e
000000e0: d314 d53e af18 eb3e 4d6c dc3e 9fe3 ba3e
000000f0: 1e22 b53f a80b 4e3d 340a ba3e 80fa d23f
0.49153045 0.35172394 0.3402806 0.41937667 0.3801833 0.43055782 0.35672516 -0.08877649
0.33750927 0.48438135 -0.06349495 0.37699604 1.1635416 -0.041550748 -0.08930261 0.33255085
-0.03535738 -0.0025355662 0.06531867 0.48504096 0.3487219 0.43515775 0.47210118 0.41602162
0.3759459 -0.0010575969 -0.022539375 0.41613704 -0.07590815 0.4481972 1.2503191 -0.047031112
0.3711875 -1.5802503 0.41067564 0.37060943 0.35547885 0.3995729 0.48304027 0.3815713
0.39507705 0.4875309 0.42507315 0.48624426 1.27962 0.45517036 0.47517437 0.33276936
0.32308623 0.4128748 0.40078864 0.47387242 0.40660274 -0.06710367 -0.07604954 0.37178174
0.4161745 0.4591727 0.43051377 0.36501786 1.4151037 0.050304085 0.3633591 1.6482697

weight f4 [32, 64]
00000000: 99ba 183c 1bfc 423d 9f89 9f3c 0991 80bc
00000010: 2aa9 07be 9df1 c53d ac58 0cbe b256 d53d
00000020: 1830 d8bd e431 99bd a1ea e83c 6e28 5f3b
00000030: ff79 22bd abcb 49bd e272 0b3d ce05 663c
00000040: d7f0 3cbd e7d9 473c 358b 193d 7af7 3fbc
00000050: a7de 04be 5de7 b33b d0f5 89bc 36bd 3abd
00000060: e756 b8bd 55aa a63c 2ed8 b23b 681d 7e3d
00000070: e70a 0cbe 7590 6dbd d5c6 ffbd b3cf 22bb
00000080: f984 d7bd 780c 803c 4f97 ac3d 35e4 64bd
00000090: 1fdb ccbc fa01 3c3d 5273 ad3d 6f38 7c3d
000000a0: 7386 6cbd fb9f 6ebd 9d60 a73d dcf3 9a3c
000000b0: 6182 adbc 5e10 95bd 70d9 9abc 32aa 5b3d
000000c0: c5c6 d6bd 8e22 8ebd 4f63 aabd 35bc efbd
000000d0: f08e d0bd 8f0b a73d 3a31 ecbd 81ae 85bd
000000e0: b6ad d93d cd59 46bc d957 c9bd 58d1 1abd
000000f0: 6fdb 03bc 53f2 52bb d974 cbbd e608 0bbc
00000100: 72b6 ba3e fac7 0a3f 1a24 d83e 66fd 123f
00000110: 8b21 f63e 798b 0b3f c5a3 003f 2170 72bd
00000120: 0d45 ef3e 4f09 c13e b4e8 0b3b fb39 0b3f
00000130: 43cb 04c0 4922 4dbd 3063 293c e916 bb3e
00000140: 75ea c9bd 6702 3b3d 8f3c c0bd 4ccc db3e
00000150: 19fd e83e c61f 133f 6f3a b73e f92b 0e3f
00000160: 56ee d83e 4c2e fe3b 0dd5 103d 63bb 0e3f
00000170: 3226 01bd 021f 073f 9e99 d73f 74a4 9cbd
00000180: b1b3 b53e b897 07c0 2620 fd3e 4c93 da3e
00000190: 7a4d ff3e 6701 053f c691 ef3e 18fa e13e
000001a0: 254b dd3e e3bd ca3e c998 cc3e 9f03 ba3e
000001b0: 5f82 05c0 fd26 d33e d945 0f3f fb00 f83e
000001c0: e01a 033f 2024 fc3e 7e12 063f 2987 f63e
000001d0: ad22 ed3e d15a 143d caef 523d 8306 f33e
000001e0: e935 da3e 34e3 013f c2e7 d03e dfb1 c13e
000001f0: 09b3 e7bf d7ff 9abd d4e1 0f3f bf72 f9bf
00000200: ec28 ba3e 89f6 f73e 2f40 113f 749c d93e
00000210: b2c9 f83e 76fa 013f db5f cd3e 65f3 7f3b
00000220: 0928 dd3e c577 fd3e 02c6 51bc d741 073f
00000230: ded0 fbbf acf3 7fbd 99ea 1b3d ae8f 033f
00000240: 38dc 303d 2ffe 6dbd 4c76 d63c 659c f33e
00000250: 80ee d03e 2bef e93e 973d 0f3f 80a4 e43e
00000260: 00f1 cb3e 1290 be3d d394 043e 600b d53e
00000270: 3dff 243c 22b2 cf3e b73c bb3f d378 9ebd
00000280: 3aee c13e 32e9 05c0 4712 013f 3f66 be3e
00000290: b2ff e03e 7eaf e13e c137 aa3e e404 c53e
000002a0: 22d4 f03e e33e 0a3f 1a23 0d3f 232e f73e
000002b0: 600d f7bf eb48 013f e50b 0b3f 1135 f33e
000002c0: ca07 b13e c602 f13e 4c82 f93e 0603 dd3e
000002d0: 5fd6 f83e dc7c fdbb a865 90bd cd51 033f
000002e0: 0edd 003f 1b2d 093f 26dd c83e 5c8e cb3e
000002f0: 1841 d4bf 2684 67bd bea8 b03e c2f0 efbf
00000300: 1060 6dbd 4693 b0bc e260 22ba b01e a6bd
00000310: 5a2f 82bc 9779 65bd 42e8 af3d 42d3 5d3d
00000320: 477c d4bd e67e 543d 2300 debc d8a7 d9bd
00000330: 3abe dbbd 4587 9f3d fbb3 dfbd ff22 0e3d
00000340: f645 b4bd 738a b13b 642e 963d d411 eebd
00000350: 3a47 cdbd c578 573d 73ce aa3d 7f5b 2d3d
00000360: 7591 51bd b729 a9bd 71e1 063d fe5d c43d
00000370: 5489 fbbd f700 aebd 1d5c b73d 68dc 8cbd
00000380: d970 14bd 00c3 4dbb 12f8 dc3c d136 97bd
00000390: b929 e8bd 4b38 a4bd a541 d53d 7ca5 bdbd
000003a0: 49f8 bf3d 17be 0fbc 43ef 18bd c006 623d
000003b0: dd65 a7bc 27e8 16be 5c3f 753c 9934 a7bd
000003c0: 7ca9 37bd 5434 ae3d 8a80 6dbc ce5a 83bd
000003d0: 72e2 87bd d10d 993c 48b8 edbd 7726 9a3d
000003e0: 1517 9b3d 1d3b 273d bfd0 623c 8ac5 8cbb
000003f0: 15eb cbba 33b6 96bd 9334 74bd 2399 283d
0.009321832 0.047603708 0.019474803 -0.015694158 -0.13248125 0.09665225 -0.137057 0.104169264
-0.10556048 -0.07480219 0.028432192 0.0034051198 -0.039667126 -0.0492665 0.034045108 0.01403947
-0.04612812 0.012197948 0.037486274 -0.011716718 -0.1297556 0.005490227 -0.016840845 -0.0455906
-0.0900095 0.020344893 0.0054578995 0.062039763 -0.13676034 -0.057999093 -0.12489096 -0.0024843037
-0.105234094 0.015630946 0.08427297 -0.055881698 -0.025006829 0.045900322 0.08469261 0.061577257
-0.05774541 -0.058258038 0.081727244 0.01891511 -0.021180334 -0.072785124 -0.01890251 0.053629108
-0.10487131 -0.069401845 -0.08319723 -0.117058195 -0.10183513 0.081565015 -0.11532827 -0.065274246
0.10628836 -0.012106371 -0.09831209 -0.037797302 -0.0080479225 -0.0032187894 -0.09934396 -0.008486008
0.3646732 0.5421139 0.42215043 0.57417905 0.48072466 0.54509693 0.5024989 -0.059188966
0.4673237 0.37702414 0.0021348419 0.54385346 -2.074906 -0.050081525 0.01033859 0.36540917
-0.09859172 0.045656588 -0.09386551 0.42929304 0.45505598 0.5747036 0.3578677 0.55535847
0.42369336 0.007756984 0.03535943 0.5575468 -0.031530567 0.5278169 1.6843755 -0.076485544
0.35488656 -2.1186352 0.4943859 0.42690504 0.49863797 0.51955265 0.46790904 0.4413612
0.43221393 0.39597997 0.39960316 0.36330888 -2.0860822 0.41240683 0.55965954 0.48438248
0.51212883 0.4924631 0.52371967 0.48149994 0.46315518 0.03621942 0.051498212 0.47465906
0.42619255 0.5073731 0.40801817 0.37831017 -1.8101512 -0.07568329 0.5620396 -1.9488143
0.36359346 0.4843028 0.5673856 0.42502177 0.4859138 0.507728 0.40112194 0.0039054987
0.43194607 0.4950544 -0.012803556 0.5283484 -1.9673116 -0.062488243 0.038065527 0.5139111
0.043178767 -0.058103736 0.026179455 0.47580257 0.4080696 0.45690283 0.55953354 0.44656754
0.39832306 0.09304823 0.12947397 0.4161024 0.010070619 0.40565592 1.4627904 -0.07737889
0.37877065 -2.092358 0.50418514 0.37187383 0.4394508 0.44079202 0.33245662 0.38480294
0.47036844 0.5400221 0.55131686 0.48277387 -1.9300957 0.5050189 0.54315025 0.47501424
0.34576255 0.47072428 0.4873222 0.4316637 0.48601052 -0.0077358317 -0.070506394 0.51296693
0.503373 0.5358445 0.39231223 0.3975705 -1.6582365 -0.05652251 0.3450374 -1.8745348
-0.05795294 -0.0215546 -0.0006194246 -0.08111322 -0.01589172 -0.05602416 0.085892215 0.05415655
-0.103752665 0.051878832 -0.027099675 -0.10627717 -0.10729642 0.077894725 -0.109230004 0.034701344
-0.088024065 0.0054181158 0.07333067 -0.11624494 -0.10023351 0.05260541 0.08340158 0.042323586
-0.05116411 -0.082599096 0.03292984 0.0958824 -0.12282053 -0.08496278 0.08953116 -0.06877977
-0.036240432 -0.0031396747 0.026973758 -0.07383502 -0.11336083 -0.080185495 0.10412911 -0.09260079
0.093735285 -0.008773348 -0.037337553 0.05518222 -0.020434314 -0.14736997 0.014968719 -0.08164329
-0.044839367 0.085060745 -0.014495978 -0.06413804 -0.06634988 0.018683346 -0.116074145 0.07526868
0.07572762 0.04082786 0.013843714 -0.0042960094 -0.0015557731 -0.073589705 -0.05962045 0.041161668

bias f4 [32]
00000000: 528d 743d 0e7e 5c3e 3e38 a73e 6aa1 f83c
00000010: 999f 83bd e395 d73e 6ecc c83e 61a6 04be
00000020: 8ceb 07be 0870 de3e ca53 de3e 741c c9bc
00000030: a5d0 563d 890b f43c 7c53 acbc 5a15 c13e
00000040: 6ea7 953e 74c3 a83e ea00 c63d e010 d3bd
00000050: 3f8d afbd 4433 6cbd ce3a 053c ed4b 8b3d
00000060: 4e6d cf3d b929 9a3e 95c5 803d 8577 04be
00000070: 8a2c a23c 9047 33bd 3e5b 07bc 71fe b3b9
0.059705086 0.21532461 0.32660097 0.030350406 -0.06426925 0.42106542 0.39218467 -0.12954094
-0.13273448 0.43444848 0.434233 -0.0245497 0.052445073 0.029790657 -0.021035902 0.37711602
0.292293 0.3296162 0.09668143 -0.10305953 -0.085718624 -0.05766608 0.008131696 0.06801591
0.1012827 0.30109957 0.06287686 -0.12936218 0.019796629 -0.04376942 -0.0082615 -0.00034331114

weight f4 [1, 32]
00000000: be77 12bd d79f 173f 1600 273f 73d9 96bc
00000010: d0c6 a1bd fded 053f 49bd 253f 28a9 ec3a
00000020: 91b9 54bd 3a9d 003f 3942 113f 5d36 89bd
00000030: 053c 14be c820 a6bd 6239 19be 01ad 113f
00000040: 8e4a 1c3f 3b31 163f e14f fabd 5497 023d
00000050: 04f4 0fbd 70e8 89bd ff7b 21be c08c 0fbe
00000060: 824c bebc 7674 0d3f 4980 e2bd 5920 d9bd
00000070: 0a93 20be b3d4 0f3e 60ba 17be 1278 6abf
-0.035758726 0.5922827 0.65234506 -0.018414235 -0.078992486 0.52316266 0.6474195 0.0018055784
-0.051934782 0.5023991 0.5674167 -0.06699822 -0.1447602 -0.08111721 -0.14963296 0.5690461
0.6105126 0.5866887 -0.12222267 0.0318826 -0.03514482 -0.06733787 -0.15769957 -0.14018536
-0.023229841 0.5525583 -0.11059625 -0.10601873 -0.15681091 0.14045982 -0.1481719 -0.9158946
