ann_model_fold_1.pth (torch, 48335 bytes, 7 tensors)

fc1.weight f4 [128, 8]
000000 6a 46 4d 3e 09 6f cc 3e 93 1f 2a bc 8e d7 07 3e
       0.20046392 0.39928463 -0.010383504 0.13265821
000010 3a 54 54 be 2a a0 5b 3c b4 c2 62 3f f0 7d 54 3e
       -0.20735255 0.013404885 0.88578343 0.20751166
000020 9a e4 f1 3e bd c2 ae bd 7d 23 78 3e 59 f8 02 3d
       0.47244722 -0.08533237 0.24232288 0.031975124
000030 a3 cd a8 3e bc 7a 49 3d ee ef 05 3f ab 7f 3a 3f
       0.32969388 0.049189314 0.5231923 0.72851056
000040 65 eb 01 3f 31 d7 86 3e 81 3d 8f be d8 b5 aa 3e
       0.5074981 0.26336053 -0.2797661 0.3334186
000050 9c 89 b1 bd 33 14 72 be fb 39 5a 3f 63 7f e1 be
       -0.08668825 -0.23640518 0.8524472 -0.440425
000060 bf 41 dd 3d e5 6d 9d bd fe 8e 15 bd e9 39 d8 3d
       0.10803556 -0.07686976 -0.03651332 0.105579205
000070 68 3c ff 3d be 87 11 be cb a6 16 3f c3 f0 b9 be
       0.124626935 -0.14211938 0.58848256 -0.363165
000080 ef e2 a7 3c d5 a2 e3 3d f6 96 80 be 9d 2a 2a be
       0.020493953 0.11115042 -0.25115174 -0.16617818
000090 3f cf 40 3e 32 2d 41 be 25 24 31 3e 1f 64 1f bf
       0.18829058 -0.18864897 0.17298944 -0.6226215
0000a0 67 2f 85 be 7c ed b5 3e b8 31 b5 3e d8 3b 63 3e
       -0.26012728 0.3553275 0.35389495 0.22190797
0000b0 05 8d 86 3e 83 7b e9 3d 6d a9 06 3f 73 54 9a 3e
       0.26279464 0.11400511 0.52602273 0.30142555
0000c0 39 6e 55 be 06 7e ea 3d 18 0a 68 bf 3b 89 91 bd
       -0.20842828 0.11449818 -0.906404 -0.07106253
0000d0 34 5a 4c bd 7a 47 73 be a6 7a 43 3f 1f 6a 35 3f
       -0.049890712 -0.23757735 0.7635902 0.7086505
0000e0 f6 b2 7d 3b 7c 97 76 be ef 67 d5 be 87 36 1c 3e
       0.0038711405 -0.24081224 -0.41680858 0.15255176
0000f0 7f 87 92 be 82 12 e5 be 78 5b 41 3f 43 d5 c6 3e
       -0.28619 -0.44740683 0.75530195 0.3883458
000100 61 91 7c 3d be 5d 51 be bd 29 08 be cc a2 fd 3e
       0.06166208 -0.20445916 -0.13297172 0.49538267
000110 fd 2b 04 bf 65 71 bf be d4 f6 3f 3e b7 65 fc be
       -0.5162962 -0.373912 0.18746501 -0.49296352
000120 40 ed 9e b9 7a 8c 3e bd db 38 13 bf 6d 2c b6 3d
       -0.00030312873 -0.046520688 -0.5750863 0.08895192
000130 aa 47 76 bd 1d 3d fc be 55 01 44 3e 31 66 3c 3f
       -0.060126938 -0.49265376 0.19141133 0.7359343
000140 97 78 0c 3f 72 23 9e 3d 27 2f 09 3f 22 f7 0c 3f
       0.54871505 0.077216044 0.53587574 0.55064595
000150 65 49 f5 3d bb 8f 39 3e 3b d1 35 3f 31 51 e2 3d
       0.119768895 0.18121235 0.71022385 0.11050642
000160 02 2c 75 3e 4b 90 b6 bd 48 db 1f 3d 9b eb eb 3e
       0.23942569 -0.089142404 0.039027482 0.4607819
000170 26 3b 15 3e dd 56 97 3d 34 c6 b3 3e e2 98 0c 3f
       0.14573345 0.07389615 0.35112154 0.5492078
000180 30 f8 af bd df 28 48 3e b0 1f 67 3f c8 79 5b 3e
       -0.0859226 0.19546841 0.90282726 0.21433175
000190 01 71 bd be d2 21 2b bf c1 67 4a 3f c6 34 23 3e
       -0.37000278 -0.6684848 0.79064566 0.159381
0001a0 e0 07 85 bd ee 20 88 bc 18 85 91 bd 6e ec 9d bd
       -0.06495643 -0.016617265 -0.07105464 -0.07711111
0001b0 14 a9 b0 3d c9 64 34 3e 70 f0 e7 3e e9 6d 8c be
       0.08625999 0.17616571 0.45300627 -0.27427605
0001c0 52 7a b2 3d bd 6c 92 3e a4 42 13 3f 62 41 88 3e
       0.08714737 0.28598586 0.5752356 0.26612383
0001d0 ac ea ae 3e d6 af 67 bd 65 99 5d 3e 72 d2 22 3f
       0.34163415 -0.056564175 0.21640547 0.63602364
0001e0 95 4d cf 3e 1c eb 72 3e 90 c4 65 be 9e 46 00 be
       0.40488878 0.237225 -0.22438264 -0.12526938
0001f0 93 69 f8 be 49 62 6b be b8 da 10 3e 69 42 7f be
       -0.48518047 -0.22986712 0.14145935 -0.24927677
000200 d8 20 21 be 92 ca d6 be 2d 0a 97 3c 31 29 e1 bd
       -0.15735185 -0.41951424 0.01843747 -0.10994185
000210 35 6f 0d bf 81 78 1e bf 30 8a 28 3e f7 c6 19 3f
       -0.55247813 -0.61902624 0.16458964 0.6006922
000220 f4 1d 06 3f f8 a0 2a 3e d9 80 54 bf 14 03 3d 3f
       0.52389455 0.16662967 -0.83009106 0.7383282
000230 4b e6 5d ba b5 f3 a6 3e 4e 7b 62 3f 9e 3d ff 3e
       -0.0008464797 0.3260781 0.884694 0.49851698
000240 41 be 87 3e 93 e8 c9 3e 99 74 a0 3e 43 f4 bc 3e
       0.2651234 0.39435253 0.31338957 0.36905107
000250 45 ed 04 3f f6 3d 07 3f eb 4d 6d 3f be c3 29 bf
       0.51924545 0.5282892 0.9269702 -0.66314304
000260 53 59 2e 3e f1 60 e0 3e e9 30 6c 3e 78 65 0d be
       0.17026262 0.4382396 0.23065533 -0.13808239
000270 a7 34 b9 bb 40 4d 3d 3e d0 df 26 3f cb e3 9d 3e
       -0.0056520286 0.184865 0.6518526 0.30837855
000280 db 90 9d 3e 8e a0 cf 3e ec e6 ec 3d 28 47 94 bc
       0.30774578 0.4055218 0.11567482 -0.018100336
000290 de 84 6d 3d 1c 65 4e 3e 32 cf 52 3f 9f fd d8 3e
       0.05798804 0.20155758 0.82347405 0.42380998
0002a0 78 c0 94 3e 2e 62 d4 3e fb d3 17 bf 3f 4e cb 3e
       0.29053092 0.41481155 -0.5930783 0.39708135
0002b0 ec 58 b4 3d 9e c7 9d 3e 02 a3 53 3f dd 39 c4 3e
       0.08806023 0.30816358 0.82670605 0.38325396
0002c0 41 50 03 3f df d9 0a 3f 7e 61 88 3e 00 d8 cb 3e
       0.5129433 0.54238695 0.2663688 0.39813232
0002d0 b1 2f 74 3d 30 91 bf 3e cc df 7a 3f e9 f1 24 be
       0.059615795 0.37415457 0.97997737 -0.16107906
0002e0 74 a3 89 3e 0b 53 b8 3e d1 e1 f5 be 5a 92 76 3e
       0.26882517 0.36000857 -0.48023847 0.24079266
0002f0 fd 6f dc 3e 81 f0 5e 3c 63 87 29 3f 84 eb cb be
       0.4305419 0.013607145 0.6622221 -0.39828122
000300 9c c2 f7 3e e3 fd ad 3e 96 c3 10 be b2 3c 91 bd
       0.48390663 0.33982763 -0.1413711 -0.07091655
000310 ac e8 d4 3e 9c 22 0c 3e b4 99 28 3f 94 d8 1f bf
       0.41583765 0.13685077 0.6585953 -0.62439847
000320 44 ad 05 3e 5c fe c3 3e 3f f7 70 be 53 4f a6 3e
       0.13054377 0.38279998 -0.23531817 0.32482395
000330 2b a3 b9 be bc dc e9 bd 6a 3f b4 3e 99 66 5b 3e
       -0.362573 -0.11419055 0.3520463 0.21425857
000340 ba 36 5e bb 32 55 24 be 95 a3 3d bf 08 fe a3 3d
       -0.0033907131 -0.16048124 -0.7407773 0.08007437
000350 51 9d 3f be 3f 49 72 bc 11 52 18 3f 9f d0 2d 3f
       -0.18712355 -0.014787971 0.59500223 0.67896456
000360 3f e6 9d 3e de 3d 0e 3d 39 f1 c8 3e 3d bf d1 3e
       0.30839726 0.03472697 0.39246538 0.40966216
000370 a2 4e bb 3e 78 ea 46 3e cf 23 f6 3c 15 10 5b bf
       0.3658343 0.1942538 0.030046372 -0.85571414
000380 bc e6 64 3c 82 a2 a7 3e e6 8a ff 3e b0 69 cb 3e
       0.013971027 0.3274117 0.4991066 0.3972907
000390 53 cb 23 3e 57 0f f0 bd 27 2f dc 3e 38 30 a7 3e
       0.15995531 -0.11721676 0.43004724 0.32653975
0003a0 f1 6f f2 3a d1 1c ca 3e 95 b5 08 bf fb 67 cb 3e
       0.0018496496 0.3947511 -0.5340207 0.39727768
0003b0 1c b4 fd 3e 3b 05 f2 3e 36 38 23 3f ed 1b 86 bf
       0.49551475 0.47269616 0.63757646 -1.0477272
0003c0 8d c1 08 be fd 80 7f 3e 45 fa f7 be 07 fe 41 3e
       -0.13355084 0.24951549 -0.48433128 0.1894456
0003d0 f6 91 c2 be f1 99 e2 bd 41 73 51 3f 1a f3 ec be
       -0.38001984 -0.11064518 0.8181649 -0.46279222
0003e0 79 1d b0 3e b7 3c bb 3d f3 1d 42 3f 5c 8a f8 3e
       0.34397486 0.0914244 0.7582695 0.4854306
0003f0 46 11 42 3e 16 d1 cb be f0 5a bd 3e a8 8b 44 3f
       0.18951902 -0.39807957 0.36983442 0.767756

fc1.bias f4 [128]
000000 a0 13 84 3f 07 12 63 3e cf 49 04 3f 64 1a 33 3f
       1.0318489 0.22174846 0.5167512 0.69962144
000010 1a 37 58 3f 2e 71 36 3f 0f 17 8e 3e 9e c1 d5 3e
       0.8445908 0.7126645 0.27751967 0.4174928
000020 d0 18 7b 3f ab 78 2e 3f 0e e6 95 3e f9 35 62 3f
       0.98084736 0.68152875 0.2927708 0.88363606
000030 fb d6 2d 3f 4d 1a 89 3f fe ae 15 3e 1f 5e 85 3f
       0.6790616 1.0711151 0.14617535 1.0419348
000040 88 80 0b 3f e6 cf e2 3e 02 27 6d 3e fc b2 70 3f
       0.54493 0.4429924 0.23159412 0.9402311
000050 5d 35 05 3f d2 91 f2 3e e8 21 7f 3e b6 75 cf 3e
       0.5203455 0.47376877 0.24915278 0.40519494
000060 af 5d 39 3e c3 1f 4c 3f f9 6a c2 3e 6e 22 99 3e
       0.18102144 0.79735965 0.3797224 0.2990908
000070 99 df bf 3e fd 60 d2 3e b8 fe 8b 3e 98 d6 5b 3e
       0.3747528 0.4108962 0.27342772 0.2146858
000080 30 bc 09 3f 8b 3d 71 3f c1 fb 5a 3f 2f 53 7c 3f
       0.53802776 0.9423453 0.85540396 0.9856443
000090 fc 71 0c 3f 98 83 38 3f 7f 45 18 3f 98 68 c7 3e
       0.54861426 0.72075796 0.5948104 0.38946986
0000a0 b2 1b 96 3f 09 1c 2e 3f 63 1b 96 3f 0a 63 b0 3e
       1.1727202 0.6801153 1.1727108 0.3445056
0000b0 7f d9 c8 3e d1 e1 8a 3e 05 fd 7d 3f e3 1b cb 3e
       0.39228436 0.2712541 0.992142 0.39669713
0000c0 a9 de 78 3f 50 3e 93 3e 6d ec 11 3f fc 55 f8 3e
       0.9721475 0.28758478 0.5700138 0.485031
0000d0 21 e5 b0 3e 9e d5 30 3f 73 24 c8 3e 7c 5b 66 3e
       0.3454981 0.69075954 0.3909031 0.22495836
0000e0 76 8a f7 3e 9a bf 6f 3f 45 e0 39 3f e2 e6 63 3f
       0.48347825 0.93651736 0.72607833 0.89024174
0000f0 26 2b 99 3f b6 b0 1e 3f 56 00 b8 3e 3e e1 57 3f
       1.1966293 0.6198839 0.35937756 0.8432807
000100 5d 3a 9b 3e d0 be 66 3f 2c eb e1 3e 61 f5 b2 3e
       0.30317965 0.90134907 0.44124734 0.34952834
000110 98 d1 75 3f f3 52 f5 3e 67 94 5e 3f 2e e1 d4 3e
       0.9602294 0.47914848 0.86945194 0.41578048
000120 ac dc 2c 3f 31 36 c3 3e 31 d2 93 3f 7d 91 4f 3f
       0.6752422 0.38127282 1.154852 0.8108137
000130 b9 d0 87 3f 8d 6a 9d 3e 33 08 25 3f a8 e3 07 3f
       1.0610572 0.30745354 0.64465636 0.5308175
000140 c4 20 dc 3e c5 ea 69 3e f5 60 9b 3f 71 a5 d3 3e
       0.42993748 0.22843464 1.2138964 0.4133716
000150 a3 f2 00 3f 6b a1 46 3f 64 4a 8a 3f c3 0b 4a 3e
       0.50370234 0.77590054 1.0803952 0.19731049
000160 f1 ee 68 3f 62 a6 be 3e 66 ce 0f 3f 1f 55 07 3e
       0.90989596 0.37236315 0.56174314 0.13216065
000170 23 c1 1e 3f d0 57 98 3f b8 f7 63 3f be b6 04 3f
       0.62013453 1.1901798 0.89049864 0.5184134
000180 32 2f 01 3f 74 16 2b 3e 45 4e 22 3f aa a2 2e 3f
       0.5046264 0.16707784 0.6340068 0.68216956
000190 bb 1e 3c 3d 61 47 35 3f 83 29 9a 3e be b7 54 3f
       0.045927744 0.7081204 0.30109796 0.8309287
0001a0 2c 21 ad 3e 39 19 8b 3f a9 da dc 3e bc 0b 03 3f
       0.3381437 1.0867072 0.43135574 0.5118978
0001b0 f9 76 4f 3f 65 a4 72 3f 93 b7 30 3f 87 70 8f 3e
       0.8104091 0.94782096 0.6903011 0.2801554
0001c0 a0 c3 71 3e 5f 5c 6f 3f 38 ff c5 3e e9 84 8c 3f
       0.23609781 0.9350032 0.3867128 1.0978061
0001d0 c2 18 d7 3e f2 74 ba 3e 06 f8 b8 3e aa 3d 84 3f
       0.42011076 0.36417347 0.36126727 1.0331318
0001e0 ed b0 e6 3e 56 4f 19 3f 62 32 6e 3e ac cf f8 3e
       0.4505686 0.5988668 0.23261407 0.4859594
0001f0 b4 eb fa 3e 22 8a be 3e dd 71 75 3f 4c 42 d2 3e
       0.49007952 0.37214762 0.95876867 0.41066206

fc2.weight f4 [64, 128]
000000 b2 92 be 3e ef f8 bc 3e fc e0 04 3f 92 af d4 3e
       0.37221295 0.3690867 0.519058 0.415402
000010 e9 44 a1 3e e1 2c ab 3e 29 85 97 3e a5 b5 3a 3e
       0.31497887 0.33432677 0.2959378 0.18233354
000020 a5 f4 ea 3e 28 9c 95 3e fc 7c bd 3e ba 2c bf 3e
       0.45889774 0.292207 0.37009418 0.3733881
000030 7f 07 f1 3e 08 b7 95 3e be e4 c2 3d 61 cc 0a 3f
       0.47076032 0.29241204 0.09516285 0.5421811
000040 25 ef f5 3d a0 95 0e 3f 03 ba a7 3e 69 2d aa 3e
       0.12008504 0.5569706 0.32759103 0.3323777
000050 68 7f b7 3e 5e 95 fb 3e 0c 58 c6 3e 83 0f e6 3e
       0.3583939 0.49137396 0.3873905 0.4493371
000060 d2 00 f1 3e 73 a4 d2 3e 90 1c b8 3e 7f fb 19 3e
       0.47070938 0.4114109 0.3595929 0.15037344
000070 3f fd ac 3e 97 e3 d3 3e 09 d2 a4 3e 92 28 b3 3e
       0.3378696 0.41384575 0.32191494 0.3499189
000080 e2 77 a7 3e 72 a8 cb 3e 8f 00 a4 3e 38 75 d4 3e
       0.3270865 0.3977695 0.32031676 0.4149568
000090 33 2a e3 3e 9d b4 c2 3e b4 eb fb 3e 24 e8 3e 3e
       0.44368133 0.38028422 0.49203265 0.18643242
0000a0 91 ae fb 3e b7 d3 cc 3e ec 01 cf 3e 60 a5 7d 3e
       0.4915662 0.40005276 0.40431154 0.24770117
0000b0 28 a4 7c 3e a7 c3 d7 3e 4f c9 b9 3e 5e e9 63 3e
       0.24671996 0.42141458 0.362864 0.22256991
0000c0 b6 fb cc 3e 54 cd bb 3e 20 df e4 3e 4a e9 9e 3e
       0.4003579 0.3668009 0.4470148 0.3103736
0000d0 0f 50 ac 3e 4f 75 da 3e c6 d5 98 3e d3 2d 85 3e
       0.3365483 0.42667624 0.29850596 0.26011524
0000e0 0b 72 78 3e 4b 62 dd 3e 2b 7f e9 3e 0f 35 04 3f
       0.24262254 0.43239054 0.45604834 0.5164346
0000f0 5a c2 e0 3e ea 80 c7 3e 43 29 e8 3d c4 4f cd 3e
       0.43898278 0.3896554 0.11335995 0.4009992
000100 7c c4 98 3e ba d8 bf 3e b7 ce fa 3e 4d a0 d3 3e
       0.29837406 0.37470037 0.48985836 0.41333237
000110 1c 98 f4 3e 71 99 ac 3e b1 54 b6 3e a3 59 e5 3e
       0.477723 0.33710817 0.3561149 0.4479495
000120 82 91 ab 3e 8e da f1 3d 4e 53 b9 3e 22 ee ce 3e
       0.3350945 0.11809264 0.3619637 0.40416056
000130 b4 bc d9 3e df d3 9c 3e 83 a7 bf 3e 03 a4 b2 3e
       0.42526782 0.30630395 0.3743249 0.34890756
000140 f3 dc 6c 3e a0 9b 94 3e da c6 f2 3e 4e 90 d0 3d
       0.2313116 0.29024982 0.47417337 0.10183774
000150 20 32 0f 3f d3 7a 59 3e 6e 20 e4 3e 45 e4 b6 3e
       0.5593586 0.2123826 0.44555992 0.3572103
000160 77 da d6 3e 89 66 07 3f 9e e6 8c 3e 50 c5 42 3e
       0.4196355 0.5289083 0.27519697 0.19020581
000170 86 cf 79 3e b7 d4 f1 3e ae ac d0 3e b2 17 a0 3e
       0.2439557 0.472326 0.40756744 0.31268078
000180 61 4b d1 3e 7e 31 c6 3e 15 a9 8e 3e c8 c2 8a 3e
       0.40877822 0.38709635 0.27863374 0.2710173
000190 ae 83 b9 3e 73 b3 87 3e 0e 91 4b 3e ab 73 bb 3e
       0.36233276 0.26504096 0.19879553 0.36611685
0001a0 63 d6 3f 3e a7 70 d5 3e 41 72 e9 3d 71 dd 8f 3e
       0.18734126 0.4168751 0.11398745 0.28098634
0001b0 7c fd 88 3e 64 80 01 3f fa a5 99 3e 13 56 6c 3d
       0.26755893 0.50586534 0.30009443 0.057699274
0001c0 ad 8b cc 3e ac e3 ca 3e 98 be 83 3e 54 9e 03 3f
       0.39950314 0.39626825 0.2573135 0.51413465
0001d0 b4 e8 6d 3e 67 72 ee 3e 35 4f 50 3e 15 75 8a 3e
       0.232333 0.46571657 0.20342715 0.27042452
0001e0 72 4a 28 3f 48 9a c0 3e b7 56 8a 3e c4 42 ad 3e
       0.65738595 0.37617707 0.27019283 0.3384
0001f0 50 fc c7 3e 53 0d 70 3e b5 55 c0 3e cf 57 a4 3e
       0.39059687 0.23442583 0.3756539 0.32098243
000200 22 bb 37 bc f4 b9 78 3b e4 d2 5f 3d 30 85 ea bc
       -0.0112140495 0.0037952634 0.05464448 -0.028627962
000210 00 71 4d bd f2 3b 3c bc a3 77 c1 bd 8c fd 92 bd
       -0.050156593 -0.011488901 -0.09446647 -0.071772665
000220 3f 52 a5 3c 93 c6 a9 bc 04 8c a8 3c e5 98 a0 bd
       0.02018082 -0.02072457 0.020574577 -0.07841662
000230 49 14 53 3d e3 dd 8d bd 44 0a e9 3c 4d 44 a4 3c
       0.051533017 -0.06927087 0.028447278 0.0200521
000240 79 c8 cb 3c 8e ec 6a 3d 2f e4 93 bd b8 15 1a 3d
       0.024875866 0.057354502 -0.07221257 0.03761837
000250 0c 59 70 bd 6b c5 99 bd 9b ad 9d 3d a5 5a 9d 3c
       -0.05867867 -0.075083576 0.07699128 0.019208262
000260 49 bb d5 3c 4a 7f c5 bd 78 81 29 bd 6b ac 9f 3c
       0.026090281 -0.09643419 -0.041383237 0.019491395
000270 01 0a 74 bc e4 b0 c4 bb 4c 78 9b bd e5 72 41 bc
       -0.014894963 -0.0060025323 -0.07591304 -0.011807178
000280 34 02 24 3c 40 a3 3a 3c 34 ea a3 bd e7 98 77 ba
       0.010010291 0.011391461 -0.08003655 -0.00094450865
000290 bf 00 92 bd f1 a3 88 3d 9b 95 83 3d 1c 3c a9 3b
       -0.071290486 0.06671894 0.06425019 0.0051646363
0002a0 f5 72 35 3d 57 c0 46 3d 8f 25 06 bd db ce 9d bd
       0.044299085 0.048523273 -0.032750662 -0.0770547
0002b0 2d 0f 48 bd 1c 80 32 3d ad 52 9f bd 3c 62 8a 3d
       -0.048842598 0.043579206 -0.07779441 0.06757018
0002c0 26 5b 50 bc 08 7a 51 3c ea c8 9b bd 8c cf 9e 3b
       -0.012717044 0.012785442 -0.07606681 0.004846519
0002d0 a3 8c c3 bd 66 36 8b 3d 69 09 3d 3d 71 ec 48 bc
       -0.09548309 0.06797485 0.046151552 -0.012263403
0002e0 09 f1 f3 bc 96 17 b4 bd 87 f5 47 3c cf b0 ad bd
       -0.02977802 -0.08793561 0.012204534 -0.08480989
0002f0 6d 35 8a bd e1 cf 13 bd 8e 70 ab bd b8 a7 a4 bc
       -0.067484714 -0.03608692 -0.083710775 -0.020099506
000300 b1 09 2f bd 6a 77 a3 bc 4f e9 b5 bd e3 d3 46 bd
       -0.04273385 -0.019954402 -0.08882391 -0.048541915
000310 3e 9a 41 3d 69 b4 bb bb 05 1a a1 3c b2 4b 5b 3d
       0.047266237 -0.0057282937 0.019665727 0.053538986
000320 02 a0 6e 3d 8c cb 42 3c 4a db 60 3d 03 63 a1 bd
       0.058258064 0.01188935 0.05489663 -0.07880213
000330 b8 57 51 bd c0 e4 2d 3c e1 05 82 bd 95 30 7b bd
       -0.051109046 0.01061362 -0.063487776 -0.06132563
000340 05 33 90 bd 6f eb 69 3d 48 1e 95 3c 81 6a 9c bb
       -0.07040981 0.057109293 0.018202916 -0.0047734384
000350 82 16 55 bd 61 3b 81 3d 7e 73 aa bd 73 59 1e bd
       -0.05202342 0.06310154 -0.0832281 -0.038659524
000360 e2 3d 7c bd 5e af ab bd 44 56 69 bd ca ab 66 3d
       -0.061582454 -0.08383058 -0.056967035 0.056316175
000370 b4 1f 00 3d e1 2a 96 3d d6 d1 6f bb c7 ee 54 bd
       0.031280234 0.07332397 -0.0036593578 -0.05198553
000380 ca ce 2d 3d ad 51 d6 bb e7 9a 99 bd 08 67 70 bd
       0.042433538 -0.006540498 -0.075002484 -0.05869201
000390 68 da 33 3d f6 ff 22 3d 68 ee b6 bd 99 43 5c bc
       0.04390946 0.039794885 -0.08932191 -0.013443851
0003a0 55 7d 65 bd f2 8c 58 3d c7 55 8a bd b4 a4 50 bd
       -0.05602773 0.05286879 -0.06754642 -0.050938323
0003b0 d4 e9 82 3d 73 a0 64 bd 56 05 3c bd 0d 3a b9 bb
       0.063922554 -0.05581708 -0.045903526 -0.005652672
0003c0 a0 16 a9 bd 0d 43 ea bb 9d 2e d5 3c a4 55 26 3d
       -0.082562685 -0.0071491064 0.026023204 0.040609017
0003d0 b0 28 2a 3c 66 70 b4 bd 46 a9 56 3b 92 1a a3 bd
       0.010385677 -0.08810501 0.0032754703 -0.07964052
0003e0 68 73 0c 3d a6 c9 a6 3c c7 3f a9 bd 6e 1a ca bc
       0.034289747 0.020359825 -0.08264118 -0.024670806
0003f0 2e 79 8f bd 55 c5 90 bd c5 77 19 bc a5 ec 2d 3d
       -0.07005535 -0.07068888 -0.009366934 0.04246201

fc2.bias f4 [64]
000000 45 2a f2 3e f7 c3 43 bd 8e d1 f8 3e cb 11 da 3e
       0.47297874 -0.04779431 0.48597378 0.425917
000010 4e dd cc 3e 9b b8 97 3f fa c3 da 3e 85 d0 d0 3e
       0.40012592 1.1853212 0.42727643 0.40784088
000020 50 d3 ca bd 17 1a ed 3e 7d 91 db 3e 35 ec 05 3f
       -0.09903586 0.46308967 0.42884436 0.5231355
000030 c6 ea 00 3f 9f 09 fc 3e 95 43 c6 3e e9 4f 45 3f
       0.50358236 0.4922609 0.38723436 0.7707506
000040 9a d0 c4 3f 20 aa c2 3e 12 09 b1 3e 62 10 db 3e
       1.537616 0.3802042 0.34577233 0.42785937
000050 af 93 db 3e 50 5d cf 3e 8f 48 f2 3e 7b c8 ad 3e
       0.4288611 0.4050088 0.47320983 0.33942017
000060 4d 31 b2 3e c9 93 0a 3f e0 08 02 3f b1 a1 19 bd
       0.3480324 0.5413175 0.5079479 -0.037507717
000070 03 b0 b9 3e 99 76 ef 3e 67 28 b8 bd f5 90 a7 3e
       0.362671 0.4677017 -0.08992081 0.3272778
000080 81 b2 b8 bc 25 44 f7 3e 50 98 bc 3e 84 1e c9 3e
       -0.022546055 0.48294178 0.36834955 0.39281094
000090 f2 c8 9d bd 16 e5 04 3f fa 7c c7 3f 2d d2 cb 3e
       -0.07704343 0.5191206 1.5585015 0.3980879
0000a0 86 70 da 3e 4c 86 e5 3e b9 60 e5 3e 71 f4 e0 bf
       0.42663974 0.44829023 0.44800356 -1.7574598
0000b0 c3 d3 e8 3e 07 34 fd 3e 73 d1 fc 3e ea 43 92 bd
       0.4547406 0.49453756 0.49378547 -0.0714186
0000c0 d2 4f d0 3e 81 70 c9 3e ae 7a e4 3e e6 4f fa 3e
       0.40685898 0.39343646 0.44624847 0.48889083
0000d0 1a 92 ec 3e d0 6a 06 3f b5 97 d1 3f aa 17 01 3f
       0.46205217 0.5250673 1.6374422 0.50426733
0000e0 32 12 e3 3e 56 87 e6 3e 11 bd c2 3e 6d 25 e0 3e
       0.4434982 0.45025128 0.3803487 0.43778554
0000f0 84 69 e6 bf cd 87 b2 3e 00 d2 e5 3e e7 fd c3 3e
       -1.8000951 0.34869233 0.4488678 0.3827965

fc3.weight f4 [32, 64]
000000 c8 a0 ba 3e 3b eb 61 3a e1 6e cf 3e 9f 48 c6 3e
       0.3645079 0.0008618121 0.4051428 0.3872728
000010 42 f5 a2 3e 81 3b e8 bf 6b b1 e8 3e d3 65 93 3e
       0.31827742 -1.8143159 0.4544786 0.28788623
000020 88 c9 e4 b6 df 59 fe 3e 7c 10 d6 3e 72 dd e0 3e
       -6.818391e-06 0.4967794 0.41809452 0.4391895
000030 ce 04 03 3f c1 d8 e3 3e 59 4c a4 3e 0b 40 fa bf
       0.51179206 0.44501308 0.320895 -1.9550794
000040 e0 f2 cb bf eb d5 05 3f a0 ba f3 3e b7 45 c2 3e
       -1.5933495 0.5227954 0.4760332 0.37943813
000050 9e a5 a1 3e 7c e6 a1 3e fc e8 90 3e 03 9f 05 3f
       0.31571668 0.31621158 0.28302753 0.5219576
000060 c3 87 d7 3e c8 00 fe bf dd 1e ca 3e 58 a5 7f 3d
       0.42095765 -1.9843988 0.39476672 0.062413543
000070 90 27 e0 3e 3b f5 e8 3e 67 77 df bc 3f 1f c7 3e
       0.43780184 0.45499596 -0.027278615 0.38891026
000080 f6 78 5c bd 3e 8b ef 3e c4 15 b2 3e 7f 61 db 3e
       -0.053826295 0.4678592 0.3478223 0.4284782
000090 a8 da b0 bc 08 72 03 3f 99 40 ad bf 87 e8 00 3f
       -0.021588638 0.5134587 -1.3535339 0.5035481
0000a0 3b 2c 01 3f 27 76 f3 3e c1 fe 9b 3e 22 9b 87 bf
       0.50458115 0.4755108 0.304678 -1.0594218
0000b0 53 68 00 3f 13 1d db 3e 34 a2 07 3f fd bb 30 bd
       0.50159186 0.4279562 0.5298188 -0.04314803
0000c0 3b b7 8b 3e bd d5 b3 3e 9c 6a a4 3e 13 1f d2 3e
       0.2728823 0.35124007 0.32112586 0.41039333
0000d0 5b f6 96 3e 7a fc e5 3e 29 c9 db bf d8 76 bd 3e
       0.2948483 0.44919187 -1.7170764 0.37004733
0000e0 94 f9 fd 3e 92 84 b3 3e 07 89 ef 3e cf bf e9 3e
       0.49604475 0.3506208 0.4678423 0.4565415
0000f0 0d 8a df bf b9 38 bb 3e 56 3c c2 3e 0a 74 a8 3e
       -1.7464005 0.36566713 0.37936658 0.3290103
000100 46 59 d7 3e 7e 56 7a 3c ec b6 c8 3e 5e 59 07 3f
       0.42060298 0.01527941 0.39202058 0.5287074
000110 fd f2 e0 3e e0 d7 da bf a4 02 f9 3e 01 08 df 3e
       0.43935385 -1.709713 0.48634827 0.43560794
000120 99 a9 91 3d 60 9a bf 3e 92 cd f2 3e 84 23 02 3f
       0.07112426 0.37422466 0.47422463 0.5083544
000130 3f 30 fc 3e 8a 42 e4 3e 59 19 dd 3e 01 76 f1 bf
       0.4925556 0.44582015 0.431834 -1.8864137
000140 a4 72 d3 bf 0b 31 f5 3e f9 26 ea 3e 12 f6 aa 3e
       -1.651936 0.4788898 0.4573286 0.33390862
000150 33 62 b3 3e bc 50 98 3e 52 de c3 3e 4f 1d d2 3e
       0.35035858 0.29749095 0.38255554 0.41037986
000160 ea e8 fc 3e cf d2 e0 bf be 2d f6 3e 2a 69 0a 3c
       0.4939645 -1.7564334 0.48081774 0.008447925
000170 4b ba e5 3e bc 2e ee 3e ba a1 b4 bd 28 4a aa 3e
       0.44868693 0.4652003 -0.088199094 0.33259702
000180 bd 98 f6 3d 31 f6 c7 3e 7f 08 00 3f 9b 6f be 3e
       0.12040851 0.39055017 0.50012964 0.37194523
000190 36 f4 48 bd 53 9e bc 3e 9c ac 9a bf a5 ca b1 3e
       -0.049061023 0.36839542 -1.2083926 0.34724918
0001a0 f5 2e c5 3e 4e 75 9f 3e 84 7e d6 3e 1a 70 9b bf
       0.38512388 0.31144184 0.418934 -1.2143586
0001b0 01 0d 05 3f bd 3a 94 3e 7a 4f c9 3e 85 4e fa 39
       0.5197297 0.28951064 0.39318448 0.00047742217
0001c0 c4 0f 05 3f 2a b1 95 3e 95 11 02 3f 6e 37 d5 3e
       0.5197718 0.29236728 0.5080808 0.41643852
0001d0 ee 50 c1 3e 24 81 00 3f 52 02 c5 bf c1 52 af 3e
       0.37757057 0.5019705 -1.5391333 0.34242824
0001e0 5f d4 c5 3e a8 3d f3 3e b5 4c d7 3e 68 50 04 3f
       0.3863859 0.47507977 0.4205071 0.5168519
0001f0 a2 5c ef bf d7 89 cc 3e 73 d5 91 3e ef 5b e5 3e
       -1.8700144 0.39948913 0.2848316 0.44796702
000200 7d a1 92 be 49 04 d0 bd 22 2f bb be 23 63 d5 bc
       -0.2863883 -0.10157067 -0.36559397 -0.026048249
000210 0c 0c 48 3e cf 81 f5 3f 94 f8 5a 3e 82 b3 38 bf
       0.19535846 1.918024 0.21383888 -0.7214891
000220 4f 94 c1 bd d0 b4 cc be b4 73 d8 be e6 93 59 bf
       -0.09452116 -0.399817 -0.42275774 -0.849913
000230 8b 5d be 3e 1e 70 c8 3e 4a 93 45 be 9c 82 f9 3f
       0.37180743 0.3914804 -0.19294468 1.9492984
000240 86 22 c5 3f 85 d4 80 3e 0a 9e ca be a1 71 a0 bc
       1.5401161 0.2516214 -0.395737 -0.019585432
000250 07 5a 39 3f c7 2b bf 3e 69 39 88 bd ed 5c 40 bf
       0.72402996 0.37338087 -0.06651575 -0.75141793
000260 84 b2 8d 3c c5 a2 e2 3f 0f 29 06 bf ae 91 ee 3d
       0.017297037 1.7705923 -0.524064 0.1164888
000270 47 c0 c6 3d 8f 10 45 3f 0e 27 dd bd f1 4e 1e 3f
       0.09704643 0.7697839 -0.10798465 0.61839205
000280 15 d4 96 3d d8 ac 2a bf 62 dc d7 bd a5 24 7d 3e
       0.0736467 -0.6666999 -0.105400816 0.2472101
000290 c8 37 a6 ba 5c a5 26 bd 3b da c3 3f 87 3b b5 3e
       -0.0012681419 -0.040685043 1.5300974 0.35396978
0002a0 b2 22 ba 3e 7a 0f 92 3e 35 9c f7 3e cd cb 0b 40
       0.36354595 0.28527433 0.48361364 2.184314
0002b0 e5 48 13 3f 55 99 14 3f cd a2 40 3f 16 0f 32 3d
       0.57533103 0.58046466 0.75248414 0.04347142
0002c0 73 cc fd be 38 25 f6 3e c4 68 05 bf 8e 08 0d 3e
       -0.49570045 0.4807527 -0.52112985 0.13772795
0002d0 0b ac 69 3d 43 65 a7 be 98 e5 e8 3f e2 0a 05 bf
       0.05704884 -0.32694444 1.8195066 -0.5196973
0002e0 44 f0 e1 b8 e3 83 9e be 1a 69 c3 be e2 00 21 3e
       -0.00010773589 -0.30959997 -0.38166124 0.15722993
0002f0 73 cf 02 40 cb 20 da 3e e7 f0 80 bc 9d 7e 3e be
       2.0439117 0.42603144 -0.015739871 -0.18602987
000300 3a 91 82 bc 0f c0 df 3d f7 5f 9c bb cd 56 48 bd
       -0.01593839 0.10925304 -0.004772182 -0.048910905
000310 3c 49 86 bc 39 5d db bc ae eb 67 3d 95 53 e8 bb
       -0.016392343 -0.02677785 0.056621246 -0.007090042
000320 99 88 80 bd 88 47 a9 bd ce 24 cb 3d 1e 62 51 bd
       -0.06276054 -0.08265597 0.09919129 -0.051118962
000330 f3 27 5f bd 51 72 d4 3d f5 d4 94 bd f1 66 37 3d
       -0.054481458 0.103733666 -0.07267181 0.044775907
000340 28 68 da 3d 2e a7 94 bd 1f 5a 2f 3c 51 cb 69 3d
       0.106643975 -0.072584495 0.010702639 0.057078663
000350 df fa fa bd 2b 24 85 3c bf 31 d5 3d 8e c5 c7 bd
       -0.12254881 0.016252598 0.10409879 -0.097544774
000360 b5 05 b6 bd 2f f5 8e 3d 94 9c 00 be be 67 c2 3d
       -0.08887807 0.06980359 -0.1255973 0.094924435
000370 b8 f6 07 be 10 54 54 bd 63 3b c1 3d 4c 94 50 3d
       -0.1327771 -0.05183798 0.09435155 0.050922677
000380 29 89 de bd c2 79 b2 bd 37 32 a0 3c d1 34 c5 bd
       -0.10866005 -0.0871463 0.019555194 -0.096292146
000390 af 0f 83 bc ad 38 57 3d 82 6c 3f 3d e1 61 63 3d
       -0.01599869 0.052544285 0.04673434 0.055513266
0003a0 1a 89 eb bd 54 54 e6 bc f8 fa bc 3c a1 42 d2 3d
       -0.115007594 -0.028116383 0.02306889 0.10266615
0003b0 75 10 70 bd 7a df d4 3d 46 b3 a6 3c d8 9c bd 3b
       -0.058609445 0.10394187 0.020349156 0.0057865195
0003c0 db 9e 99 3d 90 34 f4 bd c4 83 c3 3d 22 2d 7c 3d
       0.075010024 -0.11924088 0.09546617 0.06156648
0003d0 2d ec bc bd 30 af 5d bc 57 f1 2f bd 6e 1c 40 bd
       -0.092247345 -0.0135305375 -0.04295477 -0.046902113
0003e0 3e 6d 80 bd dc c4 b6 3d 42 db 55 3b c4 a1 93 bd
       -0.06270836 0.08924267 0.0032631909 -0.07208589
0003f0 8c dc fe 39 6c 9a 1b 3b fb 75 80 bd ba e8 df 3d
       0.00048610976 0.0023743166 -0.06272503 0.10933061

fc3.bias f4 [32]
000000 83 10 bd 3e f6 50 e1 3e 9c 33 c3 bf 5f c2 65 3c
       0.3692666 0.4400708 -1.5250125 0.014023392
000010 f9 78 9d bd 7e 0e cb 3e 0a 36 d2 bd 3e 49 68 3e
       -0.07689089 0.39659494 -0.102642134 0.2268419
000020 9f d2 cd 3d 86 aa 9f 3d 55 99 fa 3b c2 d3 68 3c
       0.100499384 0.07796197 0.007647673 0.014210643
000030 53 fa b4 3d bf a8 e0 3e e1 d3 84 3e fc 02 16 3d
       0.08836808 0.43878743 0.259429 0.03662394
000040 23 72 86 bd 79 90 dd bd 6f 7f c8 3e b1 4b a7 3e
       -0.065647386 -0.108185716 0.39159724 0.32674935
000050 ba 97 94 3e 25 72 9e bd 11 a6 d1 3e 59 22 d2 3e
       0.29022008 -0.07736615 0.4094701 0.4104183
000060 6c 5e be 3b 21 e8 be bd a7 b9 ce 3e 60 c0 84 3e
       0.005809596 -0.09321619 0.40376016 0.2592802
000070 fa be c7 bc 1a 8e e7 3e d7 11 cd bd 66 3e 5f 3e
       -0.024383057 0.45225602 -0.10013168 0.21801147

fc4.weight f4 [1, 32]
000000 84 b5 fe 3e 7a 7a f7 3e 59 83 07 c0 ee 78 af bd
       0.4974786 0.4833563 -2.1173918 -0.085679874
000010 ed 8d 47 bb ee 3d e4 3e b4 73 99 bc af 2e 15 3f
       -0.0030449585 0.445785 -0.01873193 0.5827436
000020 c5 af fc bc 93 64 e3 bd e6 e9 0f be 5a 64 1a be
       -0.030845532 -0.111031674 -0.14054069 -0.15077344
000030 e8 95 95 bd 7b 9e e3 3e 16 c9 f5 3e 1f 47 3f bd
       -0.07303983 0.44456849 0.4800498 -0.046698686
000040 97 91 fc bd 45 ad cc bc 30 cb eb 3e b8 57 e7 3e
       -0.123324566 -0.024984965 0.46053457 0.45184112
000050 36 59 0c 3f 36 08 cf bd 1c 47 08 3f 70 76 06 3f
       0.54823625 -0.10108988 0.53233504 0.5252447
000060 30 b1 87 bc f5 ac 1f bd c0 76 0f 3f bb 33 13 3f
       -0.016563982 -0.038983304 0.56040573 0.5750081
000070 ff 28 c3 bc 02 f3 e5 3e fd d5 21 be 1f 9a 15 3f
       -0.02382326 0.44911963 -0.15804286 0.58438295
