ann_model_fold_4.pth (torch, 48335 bytes, 7 tensors)

fc1.weight f4 [128, 8]
0.2161548 0.3383561 -0.21644203 0.11370335 -0.24070019 -0.19732194 0.34503466 -0.43771845
0.05146455 -0.062303346 -0.5610287 0.38727474 -0.22779603 -0.50207615 0.645719 0.83674103
0.3441281 0.31118304 -0.25368598 -0.1894912 -0.37945196 0.24313481 0.62348306 0.10692321
0.14547054 0.4928975 0.40867198 0.35823163 0.48347902 0.2831518 0.19858678 -0.9054237
0.32481456 0.33668202 0.29734996 0.43288174 -0.18194658 0.35784203 0.27265224 -0.7074533
0.03706751 0.081715725 0.013261749 -0.07227656 0.19874983 -0.29092905 0.3584422 -0.055656888
0.08800081 0.43171135 -0.50321305 0.44531846 -0.117458485 -0.16101374 0.06272031 -0.9134871
0.17997411 0.18709347 -0.02890164 -0.1900627 0.021634046 -0.13259669 0.55408007 0.01552603
0.014063781 0.014908646 0.30022818 0.36194688 0.3685069 0.20831144 0.42353278 -0.0010706458
0.4108039 0.118139915 -0.22371721 0.31452334 0.0064189467 -0.27780217 0.6926267 0.13248715
0.37232602 0.31256148 0.15052737 -0.005556552 -0.25485373 0.30516618 0.7700118 -0.17320274
0.08609604 0.08285375 -0.43843222 0.2931181 0.2857742 0.2285959 0.4622159 -0.66480905
-0.050197013 -0.19272508 0.0142699415 0.15017176 0.10672005 0.0033892074 0.6095333 -0.025669582
-0.1088847 -0.078178935 -0.6372149 0.34557948 -0.23109147 -0.2534794 0.12785184 0.7450412
0.3834701 0.17742702 0.32249165 0.32938296 0.11728159 0.28499058 0.80499303 -0.014339404
-0.009863255 0.2837746 0.037065577 -0.044074085 0.46981782 0.30051088 0.7230376 -0.17741473
0.15939805 -0.23331936 0.88534737 -0.05789004 -0.29232097 0.008040749 0.7033531 0.9114819
-0.11968685 0.117504925 -0.39240065 0.5228656 0.50852317 0.07397868 0.6205547 0.34621665
0.39183626 0.49913025 0.12779304 0.38897625 -0.45901984 -0.27452 0.74792784 0.021348372
0.30330783 -0.17547762 0.08974492 -0.097402535 0.29349694 0.3057319 0.50452435 0.76994586
0.5168707 -0.35090816 0.120264016 0.19763432 -0.1388515 0.274583 0.29797095 -0.3293737
0.22689885 0.15715145 0.028342083 -0.015455452 0.09381271 0.17936167 0.77307874 -0.5210018
0.32712337 0.3993784 0.26789948 -0.13969503 -0.28052428 -0.061778706 0.5474934 -0.24032149
0.311218 0.1882348 -0.37632462 0.56723595 -0.13118735 0.25093123 0.8684372 0.6168347
0.31442735 0.47686672 0.47845867 0.11128058 -0.05695041 -0.078304544 0.14419122 -0.42312422
0.47033173 0.19209243 -1.1313113 0.5126307 -0.047483917 0.112358496 0.4284266 0.36356682
0.14682512 0.27564797 -0.05461724 0.406484 0.18906003 0.32774687 0.83225197 -0.4885359
0.63581526 0.47945717 0.39690858 0.07140408 0.07930692 0.2143349 0.907305 -0.046999127
-0.028150689 -0.12611522 -0.023893116 -0.013687392 0.082941316 0.11050905 0.47687146 0.041642122
0.009475527 -0.07591062 -0.20436439 0.20068832 0.18943928 -0.28044498 0.6919786 -0.2150707
0.042001907 0.20685972 -0.062455848 -0.19792438 -0.13232024 0.16626664 0.5060115 -0.0013120476
0.30374715 0.22634883 0.41193324 0.3028853 -0.2787511 -0.45232517 0.24050885 0.6337795
00000000: af57 5d3e 033d ad3e fba2 5dbe 4ddd e83d
00000010: 1c7a 76be c30e 4abe 62a8 b03e a21c e0be
00000020: 7ecc 523d cb31 7fbd 949f 0fbf e048 c63e
00000030: 5d43 69be 1088 00bf d74d 253f a934 563f
00000040: 8f31 b03e 6253 9f3e 21e3 81be fb09 42be
00000050: 8747 c2be 55f8 783e 969c 1f3f 8efa da3d
00000060: 3bf6 143e 105d fc3e 743d d13e 236a b73e
00000070: 908a f73e 46f9 903e 555a 4b3e d9c9 67bf
00000080: 184e a63e 9661 ac3e 413e 983e ada2 dd3e
00000090: 3450 3abe 1237 b73e 1399 8b3e a91b 35bf
000000a0: 1ad4 173d 935a a73d cf47 593c bc05 94bd
000000b0: 1385 4b3e a7f4 94be bc85 b73e 7af8 63bd
000000c0: c539 b43d 4509 dd3e 92d2 00bf c800 e43e
000000d0: 138e f0bd c9e0 24be 8273 803d 4ada 69bf
000000e0: 224b 383e 6e95 3f3e 22c3 ecbc cc9f 42be
000000f0: e239 b13c 6dc7 07be 31d8 0d3f e460 7e3c
00000100: c66b 663c 6543 743c 82b7 993e 1a51 b93e
00000110: f0ac bc3e 984f 553e 4ad9 d83e e954 8cba
00000120: e454 d23e 57f3 f13d 2016 65be 3409 a13e
00000130: 0756 d23b 163c 8ebe fc4f 313f b6aa 073e
00000140: 84a1 be3e 0f08 a03e d923 1a3e bd13 b6bb
00000150: 307c 82be be3e 9c3e 7e1f 453f 0f5c 31be
00000160: 1f53 b03d 3aaf a93d 307a e0be 9313 963e
00000170: ff50 923e 0b15 6a3e 90a7 ec3e ed30 2abf
00000180: 629b 4dbd b959 45be 79cc 693c a0c6 193e
00000190: 0b90 da3d 771d 5e3b 600a 1c3f 0449 d2bc
000001a0: f1fe debd 471c a0bd 8420 23bf cbef b03e
000001b0: 3ea3 6cbe 0dc8 81be 98eb 023e 05bb 3e3f
000001c0: 3156 c43e 6eaf 353e a01d a53e e2a4 a83e
000001d0: 5531 f03d 49ea 913e 0614 4e3f d2ef 6abc
000001e0: 7d99 21bc e84a 913e 13d2 173d 0787 34bd
000001f0: f68b f03e 90dc 993e fe18 393f 35ac 35be
00000200: 3e39 233e 45eb 6ebe 20a6 623f 1b1e 6dbd
00000210: 18ab 95be 58bd 033c f30e 343f e156 693f
00000220: 611e f5bd 6ca6 f03d bde8 c8be 85da 053f
00000230: 932e 023f 2282 973d acdc 1e3f 4f43 b13e
00000240: c39e c83e 008e ff3e 2edc 023e e527 c73e
00000250: a604 ebbe e38d 8cbe 3378 3f3f c8e2 ae3c
00000260: 2a4b 9b3e 68b0 33be 2fcc b73d fb7a c7bd
00000270: 3b45 963e e488 9c3e 8228 013f 2c1b 453f
00000280: a351 043f 3caa b3be fb4c f63d a760 4a3e
00000290: 162f 0ebe 2596 8c3e a68f 983e aba3 a8be
000002a0: 2c58 683e 4fec 203e a82d e83c dd38 7dbc
000002b0: e120 c03d 96aa 373e 7de8 453f 6060 05bf
000002c0: b77c a73e 537b cc3e 1f2a 893e 370c 0fbe
000002d0: e1a0 8fbe ab0b 7dbd 8728 0c3f d616 76be
000002e0: f757 9f3e a0c0 403e 9fad c0be 6036 113f
000002f0: fa55 06be 0f7a 803e e651 5e3f e1e8 1d3f
00000300: 9ffc a03e e027 f43e 89f8 f43e 13e7 e33d
00000310: d544 69bd 225e a0bd dda6 133e bda3 d8be
00000320: 52cf f03e e1b3 443e cfce 90bf c43b 033f
00000330: 7f7e 42bd 361c e63d bb5a db3e 6e25 ba3e
00000340: 5359 163e bb21 8d3e 54b6 5fbd ac1e d03e
00000350: f498 413e 70ce a73e 770e 553f 6121 fabe
00000360: cac4 223f 697b f53e 9a37 cb3e 4d3c 923d
00000370: ab6b a23d 9c7a 5b3e 2445 683f 2882 40bd
00000380: 469c e6bc 5924 01be 7fbb c3bc 1541 60bc
00000390: 23dd a93d 9252 e23d 7f28 f43e ee90 2a3d
000003a0: 3e3f 1b3c 0777 9bbd e644 51be 3d81 4d3e
000003b0: 5ffc 413e 7c96 8fbe 8225 313f 7e3b 5cbe
000003c0: 310a 2c3d 09d3 533e b4d1 7fbd b0ac 4abe
000003d0: f57e 07be cd41 2a3e f889 013f 03f9 abba
000003e0: bf84 9b3e fdc7 673e eae8 d23e c813 9b3e
000003f0: 77b8 8ebe 2a97 e7be f447 763e 603f 223f

fc1.bias f4 [128]
0.7687299 0.17977266 0.7874281 0.24465753 0.32699022 0.93127626 0.4114816 1.0565876
0.34867907 0.9361575 0.5197642 0.8078766 1.0896398 0.6140533 0.22550505 0.090504795
0.5170005 0.1135695 0.5744487 0.19149658 0.7714779 0.6087067 0.46532267 0.1864806
0.50619745 0.21351899 0.43809336 0.23637722 0.8878711 1.0316129 0.9770434 0.8176903
0.6785863 1.0212665 0.26143226 0.7506369 0.34838384 0.2477532 0.054376412 0.5847236
1.068147 0.7053677 0.9404335 0.3861095 0.57444555 0.76217544 0.72668546 0.23293082
0.58428085 1.0255064 0.3856579 0.6669381 0.23318163 1.0865451 0.4174779 0.48243907
0.23707096 0.7172584 0.1301338 0.86556876 0.7259362 0.6028919 0.8646846 0.20871326
0.9209765 0.4729505 0.70804715 0.8229743 0.5719875 0.39399368 0.84017 0.85823816
0.38975373 0.8646344 0.22903427 -0.02238793 0.5800295 0.88026464 1.031917 0.5159275
0.54081696 1.1147517 0.35859945 0.67494214 0.20186266 1.0452126 0.91810197 0.8988002
0.30345953 0.420416 1.1035925 0.9870602 0.85465896 0.47709212 0.79081213 0.28985578
0.9656415 0.17216931 0.0843945 0.62621623 0.86609703 0.6619486 0.77730554 0.95673287
0.981875 0.6419745 0.687554 0.72139114 -0.018274864 0.15956731 0.9731026 0.47762498
0.28849724 0.25687173 0.31581596 0.31089902 0.96535814 0.9590132 1.0434196 0.36772573
0.34690398 0.5037087 0.21179742 0.35267454 0.24962822 0.21571557 0.53884274 1.0768969
00000000: 7ccb 443f 5316 383e e394 493f 8187 7a3e
00000010: 436b a73e 1f68 6e3f b7ad d23e 433e 873f
00000020: 1086 b23e 05a8 6f3f 440f 053f 00d1 4e3f
00000030: 5179 8b3f 9932 1d3f ccea 663e 945a b93d
00000040: 255a 043f 2097 e83d 120f 133f ae17 443e
00000050: 937f 453f 34d4 1b3f c63e ee3e c5f4 3e3e
00000060: 2896 013f b9a4 5a3e c64d e03e df0c 723e
00000070: 854b 633f e40b 843f 841f 7a3f 2754 513f
00000080: d5b7 2d3f dcb8 823f 73da 853e bd29 403f
00000090: 5e5f b23e 04b3 7d3e cdb9 5e3d 72b0 153f
000000a0: 0ab9 883f fa92 343f 40c0 703f 25b0 c53e
000000b0: dd0e 133f ee1d 433f 0f08 3a3f 6b85 6e3e
000000c0: 6e93 153f cb43 833f f474 c53e 75bc 2a3f
000000d0: 2ac7 6e3e e913 8b3f aabf d53e 4102 f73e
000000e0: bbc2 723e 3f9e 373f cb41 053e ea95 5d3f
000000f0: f4d6 393f 2057 1a3f f85b 5d3f eeb8 553e
00000100: 1ec5 6b3f 9126 f23e 9442 353f 72ae 523f
00000110: c66d 123f 8ab9 c93e 6215 573f 7fb5 5b3f
00000120: cd8d c73e ae58 5d3f f687 6a3e e466 b7bc
00000130: d07c 143f 0659 613f db15 843f d313 043f
00000140: fb72 0a3f 2fb0 8e3f 599a b73e 02c9 2c3f
00000150: 16b5 4e3e 87c9 853f bb08 6b3f c517 663f
00000160: 0c5f 9b3e c440 d73e 8542 8d3f faaf 7c3f
00000170: eeca 5a3f 6b45 f43e aa72 4a3f fa67 943e
00000180: 4834 773f 274d 303e 06d7 ac3d b54f 203f
00000190: 89b8 5d3f 7775 293f 7ffd 463f 72ec 743f
000001a0: 295c 7b3f 7158 243f 8a03 303f 17ad 383f
000001b0: 2bb5 95bc 9d65 233e 411d 793f 438b f43e
000001c0: e9b5 933e b184 833e a1b2 a13e 282e 9f3e
000001d0: b621 773f e481 753f c68e 853f 8c46 bc3e
000001e0: 669d b13e 0ef3 003f 6ce1 583e c291 b43e
000001f0: 8a9e 7f3e 8be4 5c3e 99f1 093f c2d7 893f

fc2.weight f4 [64, 128]
0.42971364 0.39429048 0.38534117 0.24715164 0.2181481 0.31751943 0.5046209 0.44612846
0.35248563 0.411574 0.40582472 0.33046195 0.5118159 0.2809062 0.3297379 0.27711603
0.37062845 0.38003755 0.4333386 0.39268422 0.38063 0.33924606 0.43625805 0.35946804
0.32747608 0.43097338 0.37835994 0.47436893 0.31067216 0.3697938 0.370784 0.49871346
0.20804895 0.5075233 0.119181216 0.39816627 0.3556236 0.10254732 0.3477 0.3899475
0.39784437 0.38404903 0.4496051 0.49277833 0.30840242 0.36340204 0.41068313 0.514451
0.47343525 0.4417193 0.26275522 0.39800945 0.35641685 0.46451405 0.3786874 0.29384753
0.329002 0.34552738 0.53925025 0.49731582 0.36359102 0.36443675 0.34580174 0.36129174
0.40456662 0.40247163 0.56151 0.48567995 0.3082613 0.37274233 0.31978038 0.503726
0.4341648 0.46474147 0.21836346 0.2824948 0.48495647 0.4168427 0.4504209 0.39798024
0.38390046 0.46665427 0.38220152 0.4862531 0.33040604 0.51941276 0.44680262 0.3663096
0.34121025 0.36480594 0.5247798 0.45397878 0.4452803 0.31221858 0.4065144 0.23574077
0.45487714 0.26732138 0.395309 0.48683193 0.42796177 0.39225972 0.68545306 0.53446305
0.39992443 0.44636217 0.3706133 0.52329105 0.4229925 0.38837257 0.45247686 0.36284328
0.36116058 0.531575 0.30203602 0.28990063 0.51225793 0.3967753 0.48514017 0.27552053
0.35200375 0.36245775 0.27161574 0.255301 0.24605551 0.31859097 0.43265486 0.38658416
0.35099995 0.35281625 0.46897927 0.12536693 0.20369297 0.32572988 0.34757003 0.3847914
0.27968162 0.50045425 0.3603245 0.42634705 0.41063023 0.3279981 0.38947305 0.3154775
0.41173235 0.4560912 0.50714904 0.32864454 0.25834492 0.45970538 0.36572433 0.36372584
0.19782737 0.35622144 0.41175848 0.3082638 0.30390796 0.31039432 0.39111978 0.3809732
0.27456084 0.3277485 -0.047657114 0.45492238 0.3306509 0.172367 0.28664595 0.35219768
0.3439895 0.37202698 0.28885958 0.4489794 0.1786895 0.374668 0.27126053 0.45271924
0.3297841 0.30972052 0.13032489 0.41180593 0.33019838 0.4382794 0.17871074 0.28405315
0.19766428 0.30527675 0.44178477 0.42473942 0.2996691 0.300452 0.3775795 0.36183947
0.36863518 0.34301847 0.51837707 0.30816922 0.13903515 0.27813193 0.31049222 0.3788792
0.36761576 0.2908522 0.16598557 0.23204057 0.45404997 0.53547484 0.37838358 0.3975415
0.28640944 0.4879242 0.3650181 0.40031242 0.41551307 0.41269043 0.42469728 0.28055522
0.38543332 0.2786966 0.5340472 0.37179998 0.35585332 0.3595884 0.44298664 0.28767905
0.38339636 0.32502624 0.40087536 0.371854 0.4129445 0.24968539 0.7401274 0.3900957
0.42308503 0.28843716 0.41019654 0.39402094 0.4290938 0.36084178 0.40634978 0.23657484
0.27993852 0.32228982 0.2656068 0.20476432 0.46576107 0.4752026 0.32976124 0.25895134
0.3349016 0.17038333 0.32444757 0.27733102 0.17587519 0.2397762 0.40521446 0.5108244
00000000: 6d03 dc3e 71e0 c93e 704b c53e 5215 7d3e
00000010: 3762 5f3e e891 a23e d62e 013f f36a e43e
00000020: ff78 b43e d4b9 d23e 42c8 cf3e 4f32 a93e
00000030: 5e06 033f f0d2 8f3e 68d3 a83e 27e2 8d3e
00000040: 03c3 bd3e 4894 c23e 8fde dd3e e80d c93e
00000050: efe1 c23e a9b1 ad3e 375d df3e 320c b83e
00000060: f2aa a73e 8ba8 dc3e 65b8 c13e 7ce0 f23e
00000070: 6c10 9f3e 9d55 bd3e 67d7 bd3e 5f57 ff3e
00000080: c90a 553e 0ced 013f 4815 f43d 73dc cb3e
00000090: 4c14 b63e 5404 d23d bc05 b23e 33a7 c73e
000000a0: 42b2 cb3e 13a2 c43e a432 e63e 714d fc3e
000000b0: ece6 9d3e d50f ba3e 0f45 d23e 10b3 033f
000000c0: 1b66 f23e 0829 e23e da87 863e e5c7 cb3e
000000d0: 457c b63e c9d4 ed3e 51e3 c13e 2f73 963e
000000e0: f372 a83e f7e8 b03e 4e0c 0a3f 2ea0 fe3e
000000f0: 9a28 ba3e 7497 ba3e ed0c b13e 3bfb b83e
00000100: 5b23 cf3e c310 ce3e 1fbf 0f3f 0bab f83e
00000110: 6dd4 9d3e 15d8 be3e 41ba a33e 30f4 003f
00000120: d94a de3e 98f2 ed3e ac9a 5f3e 29a3 903e
00000130: 374c f83e 686c d53e 919d e63e 11c4 cb3e
00000140: 9a8e c43e 4fed ee3e ebaf c33e 2bf6 f83e
00000150: fb2a a93e 3cf8 043f 50c3 e43e ef8c bb3e
00000160: 1cb3 ae3e d8c7 ba3e f857 063f e86f e83e
00000170: c8fb e33e 1ddb 9f3e a822 d03e 0766 713e
00000180: a8e5 e83e 59de 883e f165 ca3e 0942 f93e
00000190: ce1d db3e 44d6 c83e da79 2f3f 92d2 083f
000001a0: e5c2 cc3e 9589 e43e 07c1 bd3e 67f6 053f
000001b0: 7992 d83e c5d8 c63e 0cab e73e 98c6 b93e
000001c0: 0aea b83e 4d15 083f 77a4 9a3e db6d 943e
000001d0: 5623 033f 2226 cb3e 4b64 f83e 0711 8d3e
000001e0: d639 b43e 1094 b93e 3811 8b3e d0b6 823e
000001f0: faf5 7b3e 5b1e a33e f084 dd3e 5cee c53e
00000200: 44b6 b33e 55a4 b43e 0d1e f03e 3060 003e
00000210: e494 503e 11c6 a63e b3f4 b13e 6103 c53e
00000220: 6e32 8f3e c51d 003f 747c b83e 294a da3e
00000230: 203e d23e 5eef a73e 0369 c73e 4486 a13e
00000240: 95ce d23e c984 e93e 85d4 013f 1944 a83e
00000250: c945 843e 815e eb3e 3840 bb3e 463a ba3e
00000260: 4293 4a3e a862 b63e 02d2 d23e c1d4 9d3e
00000270: d399 9b3e 01ec 9e3e da40 c83e eb0e c33e
00000280: 3d93 8c3e a7ce a73e 1b34 43bd 96eb e83e
00000290: 134b a93e fa80 303e 42c3 923e 4153 b43e
000002a0: 641f b03e 527a be3e 67e5 933e a1e0 e53e
000002b0: 61fa 363e 7cd4 bf3e a9e2 8a3e d1ca e73e
000002c0: 76d9 a83e b093 9e3e e373 053e 3ad8 d23e
000002d0: c30f a93e 2866 e03e f3ff 363e 6a6f 913e
000002e0: 8168 4a3e 3c4d 9c3e 9d31 e23e 7277 d93e
000002f0: 3a6e 993e d8d4 993e 1a52 c13e 0643 b93e
00000300: c0bd bc3e 1ea0 af3e 5cb4 043f 5bc8 9d3e
00000310: 3b5f 0e3e 4f67 8e3e d6f8 9e3e 74fc c13e
00000320: 2238 bc3e 94ea 943e 1ff8 293e 0b9c 6d3e
00000330: 3d79 e83e e114 093f 7ebb c13e 8f8a cb3e
00000340: 42a4 923e 33d1 f93e a7e3 ba3e c0f5 cc3e
00000350: 21be d43e 294c d33e ec71 d93e efa4 8f3e
00000360: 8457 c53e 52b1 8e3e 51b7 083f 915c be3e
00000370: 6832 b63e f91b b83e 25cf e23e ab4a 933e
00000380: 874c c43e d769 a63e 893f cd3e a663 be3e
00000390: 766d d33e 87ad 7f3e fd78 3d3f a0ba c73e
000003a0: 9a9e d83e 09ae 933e 4805 d23e 1dbd c93e
000003b0: 2fb2 db3e 41c0 b83e 140d d03e ad40 723e
000003c0: 1a54 8f3e 2c03 a53e 9dfd 873e bdad 513e
000003d0: 3c78 ee3e c14d f33e 77d6 a83e 4595 843e
000003e0: 3978 ab3e f878 2e3e fe1d a63e 55fe 8d3e
000003f0: a018 343e e487 753e 4578 cf3e 63c5 023f

fc2.bias f4 [64]
0.44611087 0.3917357 0.4365967 0.49272102 0.05347053 0.33135945 0.36445555 0.49344465
0.4448455 0.32849836 0.48366863 -0.08506024 1.3205668 0.40577042 -0.0095065525 0.47490883
0.050859366 0.033027865 0.0045112823 0.34204596 -0.028992556 0.3441676 1.3338015 -0.02570754
0.03360554 0.4975177 -0.07167946 1.6648394 0.4974684 0.0052080834 0.477257 0.05131192
0.42893243 0.45579478 0.62930095 0.48763624 0.4243822 0.36824477 0.38228542 0.47398108
0.34115627 0.01157983 0.4965155 0.4491131 0.32579634 0.48777315 0.016134162 1.4732751
0.3608163 0.49037233 -0.08204184 0.39888307 0.42547202 0.44186288 0.41697574 -0.049076855
-0.058584526 0.48333994 0.36316052 -0.048372082 0.3523281 0.4164451 -0.08320772 -0.04308632
00000000: a568 e43e 9591 c83e 9a89 df3e ee45 fc3e
00000010: ea03 5b3d f2a7 a93e eb99 ba3e c7a4 fc3e
00000020: cac2 e33e f030 a83e 6aa3 f73e 1034 aebd
00000030: 5508 a93f 24c1 cf3e 5fc1 1bbc 4027 f33e
00000040: e951 503d 3a48 073d 61d3 933b a620 af3e
00000050: cc81 edbc bc36 b03e 02ba aa3f 9e98 d2bc
00000060: f6a5 093d a4ba fe3e aecc 92bd 7519 d53f
00000070: 2eb4 fe3e 92a8 aa3b 085b f43e 732c 523d
00000080: 089d db3e ef5d e93e de19 213f 75ab f93e
00000090: a048 d93e 948a bc3e eaba c33e a6ad f23e
000000a0: 09ac ae3e 54b9 3d3c 4837 fe3e 27f2 e53e
000000b0: c7ce a63e 67bd f93e ca2b 843c 4794 bc3f
000000c0: eabc b83e 1512 fb3e 8d05 a8bd 673a cc3e
000000d0: 78d7 d93e da3b e23e d87d d53e d004 49bd
000000e0: 54f6 6fbd 5578 f73e 2df0 b93e ce21 46bd
000000f0: 5964 b43e 4b38 d53e cf68 aabd 487b 30bd

fc3.weight f4 [32, 64]
0.46485078 0.40906826 0.43814337 0.3424102 -0.079854995 0.34732777 0.43896338 0.3597176
0.2659231 0.50868315 0.4989903 0.0916531 -1.5974277 0.35596687 0.13887128 0.47888452
0.0895589 0.056194473 0.06986417 0.31782532 -0.011150042 0.46007457 -1.675148 0.08970894
-0.054248527 0.4981465 -0.09264297 -1.3914993 0.32995987 -0.09837739 0.30294827 -0.05679481
0.42539296 0.2782777 -1.7752185 0.31660026 0.49489737 0.3988929 0.3282482 0.51049966
0.40833947 -0.080009066 0.44502953 0.46493274 0.5133093 0.36742967 0.0893371 -1.9106375
0.4684063 0.48623982 0.024253786 0.50533456 0.37970144 0.4061133 0.34827673 -0.06867825
-0.078604035 0.3893263 0.42326063 -0.04510552 0.31232128 0.3085656 0.1290672 0.041921888
-0.7022578 -0.024356421 -0.16976516 -0.46965784 0.05184948 0.19182926 -1.0181434 -0.4285996
-0.44258922 0.76620626 0.4260408 0.038716488 1.7326758 0.98266363 -0.11074702 -0.5342379
-0.13051939 0.007960902 0.08439709 0.5656335 0.099263616 -0.75031555 1.8952712 -0.110962145
0.06043699 -0.28467646 -0.009778379 1.7656592 -0.80352646 0.108054705 0.68633366 -0.06789058
0.4795754 -0.056574285 1.9218106 -0.08759625 -0.6770724 -0.85585207 1.0626701 0.43084624
-0.15149039 -0.00083289464 -0.40832865 0.6894166 -1.0412269 0.51823646 -0.109699555 1.9755167
0.5272713 -0.89560854 -0.06674525 -0.26045543 0.83974516 0.26870012 1.1332303 0.03263707
0.031845286 0.49924672 0.37328914 0.09644627 -0.046970934 -0.071901776 0.11311959 -0.019205619
0.3392489 0.49393886 0.33077377 0.3195927 -0.14599323 0.31943884 0.2984366 0.4425976
0.2883117 0.4434914 0.40745687 0.119070336 -1.5664918 0.35593367 0.010822444 0.41447088
-0.22220533 -0.016643912 0.08158606 0.34200266 0.10289422 0.32433307 -1.8549697 0.038379475
-0.037684996 0.39051414 -0.0056184083 -1.7378021 0.40152362 -0.06571299 0.32979807 -0.095444895
0.3976093 0.28772113 -1.9109905 0.38290104 0.33796266 0.4776698 0.50432736 0.3091145
0.30704913 0.028055519 0.27825525 0.50340486 0.39411393 0.440096 -0.003382817 -2.39501
0.37564933 0.44412708 0.049669966 0.36302215 0.4119487 0.41974133 0.483961 0.0035295337
-0.082529865 0.33556986 0.397091 0.06754776 0.46723872 0.470747 -0.018521786 0.055252716
0.29136693 0.32278848 0.35795087 0.36577418 -0.02786224 0.38492826 0.41731942 0.4614832
0.39148772 0.5154654 0.424728 0.0057318914 -1.5487723 0.37048188 0.07316841 0.49879697
-0.026449159 0.022897094 -0.061915316 0.37014198 -0.060017645 0.33643362 -1.5209668 -0.1032883
0.0064034164 0.3916177 -0.0085391225 -1.3441962 0.42913613 -0.0662646 0.30227268 -0.08755649
0.4321604 0.45175144 -1.7407676 0.45675278 0.30607936 0.35126278 0.30619207 0.41619208
0.4332135 -0.1036092 0.49859786 0.33793843 0.2865868 0.40026605 -8.732535e-05 -1.8051257
0.3836291 0.52601 -0.021542197 0.47888276 0.3737122 0.43916848 0.4562611 -0.070986904
-0.059215516 0.29101896 0.45272782 0.009209322 0.5026162 0.3925428 -0.09359966 -0.084879
00000000: ec00 ee3e 6571 d13e 5454 e03e 6450 af3e
00000010: 048b a3bd f2d4 b13e cfbf e03e e82c b83e
00000020: 1327 883e 0f39 023f a87b ff3e 9fb4 bb3d
00000030: 8378 ccbf 4a41 b63e 4634 0e3e 5a30 f53e
00000040: a86a b73d 2d2c 663d f214 8f3d 00ba a23e
00000050: aaae 36bc e58e eb3e 406b d6bf 52b9 b73d
00000060: b433 5ebd 0f0d ff3e 99bb bdbd a61c b2bf
00000070: 80f0 a83e 167a c9bd 091c 9b3e ada1 68bd
00000080: 1bcd d93e 6a7a 8e3e 5c3a e3bf 6e19 a23e
00000090: 3063 fd3e b13b cc3e 2610 a83e 1bb0 023f
000000a0: df11 d13e cbdb a3bd e9da e33e aa0b ee3e
000000b0: 3d68 033f be1f bc3e 5ff6 b63d c58f f4bf
000000c0: f3d2 ef3e 6df4 f83e e0af c63c 9b5d 013f
000000d0: 3a68 c23e 15ee cf3e 5451 b23e 2fa7 8cbd
000000e0: 27fb a0bd c755 c73e 9eb5 d83e 91c0 38bd
000000f0: 93e8 9f3e 4ffc 9d3e 312a 043e 49b6 2b3d
00000100: 2bc7 33bf 1e87 c7bc ebd6 2dbe fe76 f0be
00000110: 1f60 543d e46e 443e 8652 82bf 6871 dbbe
00000120: 0e9b e2be 1826 443f 0522 da3e 2e95 1e3d
00000130: 52c8 dd3f d88f 7b3f 55cf e2bd d1c3 08bf
00000140: e0a6 05be 716e 023c 62d8 ac3d 5bcd 103f
00000150: b94a cb3d ae14 40bf 3f98 f23f 1f40 e3bd
00000160: c78c 773d 1dc1 91be 7f35 20bc 1f01 e23f
00000170: e9b3 4dbf c94b dd3d 90b3 2f3f 370a 8bbd
00000180: e88a f53e 70ba 67bd e4fd f53f aa65 b3bd
00000190: 9e54 2dbf 1f19 5bbf 9305 883f e197 dc3e
000001a0: 4c20 1bbe 9d56 5aba 7410 d1be 9b7d 303f
000001b0: ec46 85bf 25ab 043f 29aa e0bd bbdd fc3f
000001c0: 40fb 063f 9a46 65bf bcb1 88bd 6a5a 85be
000001d0: 8af9 563f 1093 893e b10d 913f 73ae 053d
000001e0: 3470 023d 449d ff3e c11f bf3e 9f85 c53d
000001f0: 9864 40bd 3d41 93bd 3eab e73d 1a55 9dbc
00000200: 08b2 ad3e 8ee5 fc3e 2e5b a93e a8a1 a33e
00000210: 407f 15be 7d8d a33e afcc 983e 279c e23e
00000220: 979d 933e 4e11 e33e 309e d03e 26db f33d
00000230: ce82 c8bf f03c b63e 9f50 313c 8735 d43e
00000240: cb89 63be d058 88bc 9816 a73d f91a af3e
00000250: 34ba d23d fc0e a63e a66f edbf cc33 1d3d
00000260: 955b 1abd 78f1 c73e a01a b8bb 4d70 debf
00000270: 8194 cd3e 8894 86bd 4bdb a83e 9d78 c3bd
00000280: 7293 cb3e 2f50 933e 569b f4bf 9b0b c43e
00000290: 7109 ad3e 2391 f43e 991b 013f 4144 9e3e
000002a0: 8b35 9d3e b0d4 e53c 7977 8e3e 24df 003f
000002b0: 4dc9 c93e 4354 e13e 40b2 5dbb d847 19c0
000002c0: 1c55 c03e a064 e33e bc72 4b3d 0ade b93e
000002d0: f1ea d23e 56e8 d63e bcc9 f73e c04f 673b
000002e0: 6b05 a9bd d0cf ab3e 834f cb3e 7b56 8a3d
000002f0: ea39 ef3e c005 f13e 00bb 97bc ac50 623d
00000300: 0c2e 953e 8844 a53e 5645 b73e c146 bb3e
00000310: 5a3f e4bc 5115 c53e e4aa d53e 8747 ec3e
00000320: 1471 c83e 8af5 033f f375 d93e 97d2 bb3b
00000330: 2c3e c6bf cdaf bd3e 52d9 953d 5162 ff3e
00000340: e8ab d8bc b092 bb3c ea9a 7dbd 4083 bd3e
00000350: 10d5 75bd 0741 ac3e 0aaf c2bf d188 d3bd
00000360: c0d3 d13b 1d82 c83e ade7 0bbc 9f0e acbf
00000370: bbb7 db3e bcb5 87bd 7cc3 9a3e d150 b3bd
00000380: 2144 dd3e f74b e73e 79d1 debf 80db e93e
00000390: 6fb6 9c3e b7d8 b33e 35c5 9c3e 2117 d53e
000003a0: 29ce dd3e 0f31 d4bd 3848 ff3e 4406 ad3e
000003b0: 81bb 923e acef cc3e 7122 b7b8 5c0e e7bf
000003c0: 096b c43e 97a8 063f 4379 b0bc 1f30 f53e
000003d0: 3557 bf3e b1da e03e 0e9b e93e 9561 91bd
000003e0: f88b 72bd 7000 953e f1cb e73e b2e2 163c
000003f0: 75ab 003f 5ffb c83e 2eb1 bfbd 0bd5 adbd

fc3.bias f4 [32]
0.17179854 -1.2145101 0.22161461 0.34029633 0.24166982 0.064506635 0.33800706 -1.6120341
0.3063511 -0.07571244 0.363648 0.34974736 0.011766538 0.4285507 0.4294505 -0.10572269
0.36035818 0.4055665 0.068753995 -0.013743518 0.4444023 0.103933945 0.42327678 -0.103023306
0.27793548 0.23392886 0.3371406 -0.018731875 -0.1106819 0.20489153 0.06143982 0.087882474
00000000: f5eb 2f3e 1175 9bbf f1ee 623e 523b ae3e
00000010: 4b78 773e 0e1c 843d 430f ad3e 2257 cebf
00000020: 0dda 9c3e 200f 9bbd 1230 ba3e 1612 b33e
00000030: 70c8 403c ff6a db3e f0e0 db3e 2385 d8bd
00000040: de80 b83e 6aa6 cf3e e5ce 8c3d 7e2c 61bc
00000050: b388 e33e 52db d43d bcb7 d83e e2fd d2bd
00000060: 8f4d 8e3e 0c8b 6f3e b19d ac3e 9773 99bc
00000070: 31ad e2bd 16cf 513e 52a8 7b3d bafb b33d

fc4.weight f4 [1, 32]
0.56872505 -1.8192189 0.51462024 0.5899507 0.4675627 -0.07734222 0.5609726 -1.8261147
0.5709922 -0.11339614 0.41887173 0.4388008 -0.025322346 0.48019356 0.48569188 -0.12604919
0.5091839 0.43669286 0.0067607653 0.03209802 0.44836235 -0.12054927 0.47525087 -0.15935457
0.5332217 0.512705 0.5724334 -0.036105886 0.011352581 0.52352405 -0.0331467 -0.01460525
00000000: f797 113f 2adc e8bf 27be 033f 0207 173f
00000010: 6164 ef3e 9965 9ebd e69b 0f3f 20be e9bf
00000020: 8b2c 123f 3c3c e8bd 5b76 d63e 80aa e03e
00000030: cf70 cfbc eedb f53e 9bac f83e 0a13 01be
00000040: e059 023f 3596 df3e 6989 dd3b 3779 033d
00000050: c08f e53e 89e2 f6bd 1554 f33e d82d 23be
00000060: 3881 083f a340 033f ff8a 123f c4e3 13bd
00000070: 2d00 3a3c ac05 063f d6c4 07bd dc4a 6fbc
