ann_model_fold_3.pth (torch, 48335 bytes, 7 tensors)

fc1.weight f4 [128, 8]
0.05264483 -0.31163323 0.44059846 0.3683079 -0.3770048 -0.6270169 0.43841016 -0.3344928
0.35481626 0.39247534 0.71693397 -0.023879375 0.32438982 -0.32543245 0.404794 0.6615986
-0.20737308 -0.4887308 0.3147116 -0.19763082 -0.356844 -0.3273765 0.32362944 0.7483087
0.015515449 -0.08917341 0.20240694 0.11673291 -0.04402589 -0.015590657 0.73550016 -0.065701544
0.0632019 -0.4202625 0.52503276 -0.424584 -0.2580071 -0.40418753 0.23748803 -0.11674842
0.101787515 0.12736759 0.24987121 0.34630665 0.06547557 -0.088927455 0.7247125 0.1586177
-0.07757331 0.019921726 0.5021607 -0.13242829 0.11814368 -0.0039523696 0.6773137 0.4429822
0.3052298 0.3177845 -0.479503 0.36552346 0.4798261 -0.0007441678 -0.0022870435 0.3139399
0.31782928 -0.09187341 0.11186465 0.57121456 0.068368375 -0.29091042 0.5236028 0.65708345
-0.03615161 -0.28549853 -0.37312832 -0.11402109 0.018176585 -0.52526474 0.23146498 0.760165
0.29964402 0.21943611 -0.3460537 0.09667806 -0.55596954 -0.5218949 0.51724344 0.5169864
0.398479 0.29455173 -0.1281653 0.5456108 -0.057671983 0.14016153 0.8512308 0.7814928
0.46617225 0.1230094 0.379549 0.4484493 0.07674131 -0.056304716 0.11830491 -0.94367445
-0.24486312 -0.23175699 0.017066833 0.30805218 0.15879397 -0.22195388 0.50467783 -0.026592279
-0.022355972 0.39931872 -0.0025554756 -0.23924416 -0.26209274 0.13653062 0.4934702 0.10558653
-0.17102201 0.052191027 -0.03233908 0.14842243 0.1806242 -0.27817473 0.5638956 -0.40212706
-0.0076431856 0.31058398 0.19445136 0.5057449 -0.37047055 0.089196615 0.4072259 0.5779215
0.36311847 0.26614246 0.52995515 0.47399864 0.27313524 0.44146806 0.7590585 -0.26398498
0.03664337 0.31827235 0.0035032688 -0.24023311 -0.35298824 -0.38912532 0.71033967 0.4901475
0.23598695 0.033939824 -0.38981622 0.18314956 0.35015532 0.28858364 0.44736227 -0.7421164
0.356665 -0.07735408 -0.047454566 -0.17289187 -0.08454946 -0.09992659 0.63425916 -0.28047967
0.41472152 0.17523824 -0.49251398 0.21909107 0.27232388 -0.07619487 0.53960824 0.35750502
0.1736723 -0.011065104 0.007559542 -0.016782127 0.0748747 -0.22465794 0.46533644 -0.027674468
-0.052105777 0.33030492 0.03337507 0.08953019 -0.26097658 -0.10496051 0.5862185 -0.19899438
0.37809417 0.36370876 0.21847357 0.28350213 -0.08318085 0.37620512 0.61231863 -0.626605
-0.22400804 -0.3222267 -0.5137608 -0.41026026 -0.3784247 -0.2083119 0.26789075 0.66945165
0.04499915 -0.33052847 -0.30648646 -0.08642401 -0.24412455 -0.29089805 0.21080787 0.80382675
0.10052896 0.060952842 -0.33179015 0.23573753 -0.1379445 -0.20961289 0.62720305 -0.36177656
0.36451912 0.27414152 -0.74469495 0.14171028 0.23219942 0.36434484 0.8309388 -0.7129012
0.514938 0.27948248 -0.15326025 0.3322924 0.16601099 0.3206473 1.0702851 -0.4059759
0.4957712 0.24781589 -0.72245234 0.05778691 0.074938655 0.060935527 0.4411541 0.09731796
-0.24374299 0.28291148 -0.4007082 0.06343221 -0.2512943 0.02996888 0.5586276 0.51626337
00000000: 1ba2 573d 648e 9fbe 1f96 e13e da92 bc3e
00000010: c606 c1be 2e84 20bf 4c77 e03e a442 abbe
00000020: 7aaa b53e 87f2 c83e fc88 373f ae9e c3bc
00000030: 6c16 a63e 159f a6be 2941 cf3e 875e 293f
00000040: 9c59 54be ec3a fabe e121 a13e bc5f 4abe
00000050: 42b4 b6be e59d a7be c2b2 a53e 2991 3f3f
00000060: 8334 7e3c 8ca0 b6bd c443 4f3e aa11 ef3d
00000070: 7e54 34bd f46f 7fbc bd49 3c3f 888e 86bd
00000080: ff6f 813d a52c d7be 8c68 063f 1363 d9be
00000090: 8219 84be abf1 cebe 1030 733e cc19 efbd
000000a0: f975 d03d a66c 023e 3dde 7f3e 1b4f b13e
000000b0: 0e18 863d 991f b6bd c286 393f ae6c 223e
000000c0: c1de 9ebd e332 a33c 9b8d 003f 489b 07be
000000d0: 50f5 f13d e182 81bb 6e64 2d3f 90ce e23e
000000e0: 1547 9c3e a6b4 a23e 6b81 f5be e425 bb3e
000000f0: c4ab f53e 4114 43ba 39e2 15bb bbbc a03e
00000100: 85ba a23e 2028 bcbd 4b19 e53d 1e3b 123f
00000110: b804 8c3d 36f2 94be d50a 063f 9f36 283f
00000120: b613 14bd dd2c 92be ad0a bfbe e483 e9bd
00000130: 10e7 943c c077 06bf 2805 6d3e 2c9a 423f
00000140: f16a 993e dcb3 603e f32d b1be 26ff c53d
00000150: 0554 0ebf e79a 05bf 116a 043f 3959 043f
00000160: 7105 cc3e 7ccf 963e c43d 03be 26ad 0b3f
00000170: 7539 6cbd 8186 0f3e 43ea 593f ea0f 483f
00000180: 21ae ee3e 5aec fb3d 3f54 c23e 269b e53e
00000190: 8c2a 9d3d c69f 66bd d849 f23d a694 71bf
000001a0: 66bd 7abe b451 6dbe becf 8b3c 04b9 9d3e
000001b0: e39a 223e e147 63be 9132 013f 0dd8 d9bc
000001c0: df23 b7bc 8173 cc3e c479 27bb 6cfc 74be
000001d0: 0531 86be afce 0b3e 20a8 fc3e c03d d83d
000001e0: 6520 2fbe 42c6 553d fc75 04bd 0dfc 173e
000001f0: 8df5 383e eb6c 8ebe 765b 103f 99e3 cdbe
00000200: b073 fabb dd04 9f3e 421e 473e 7f78 013f
00000210: 51ae bdbe b7ac b63d ea7f d03e aaf2 133f
00000220: aaea b93e d343 883e 24ab 073f f3af f23e
00000230: 62d8 8b3e 1a08 e23e a851 423f 0a29 87be
00000240: 5c17 163d 98f4 a23e 1997 653b abff 75be
00000250: e0ba b4be 6f3b c7be d2d8 353f 9df4 fa3e
00000260: 90a6 713e 7c04 0b3d fe95 c7be 8f8b 3b3e
00000270: 8f47 b33e 3cc1 933e ab0c e53e 57fb 3dbf
00000280: cb9c b63e d16b 9ebd b85f 42bd 910a 31be
00000290: 4428 adbd 50a6 ccbd cf5e 223f 089b 8fbe
000002a0: 6156 d43e a771 333e cb2a fcbe 6959 603e
000002b0: 096e 8b3e 0e0c 9cbd c423 0a3f e60a b73e
000002c0: 27d7 313e 694a 35bc 09b6 f73b ac7a 89bc
000002d0: e857 993d bb0c 66be 9440 ee3e 91b5 e2bc
000002e0: de6c 55bd ba1d a93e 4cb4 083d 9b5b b73d
000002f0: b99e 85be 89f5 d6bd 6a12 163f 2fc5 4bbe
00000300: 8f95 c13e 0938 ba3e 89b7 5f3e 3127 913e
00000310: b95a aabd f59d c03e eac0 1c3f 2f69 20bf
00000320: 5d62 65be e6fa a4be d485 03bf a20d d2be
00000330: e2c0 c1be b74f 55be fa28 893e 2f61 2b3f
00000340: 0751 383d 073b a9be cbeb 9cbe 12ff b0bd
00000350: c9fb 79be 97f0 94be 05de 573e 97c7 4d3f
00000360: 21e2 cd3d b0a9 793d 66e0 a9be 2e65 713e
00000370: 5341 0dbe c3a4 56be 6190 203f c73a b9be
00000380: 40a2 ba3e 475c 8c3e 54a4 3ebf 801c 113e
00000390: afc5 6d3e 688b ba3e 68b8 543f b180 36bf
000003a0: fad2 033f 5418 8f3e 41f0 1cbe 3b22 aa3e
000003b0: c9fe 293e e22b a43e 1aff 883f 13dc cfbe
000003c0: b9d5 fd3e 73c3 7d3e a3f2 38bf f8b1 6c3d
000003d0: 7079 993d 8897 793d f3de e13e a34e c73d
000003e0: c397 79be c6d9 903e a029 cdbe bfe8 813d
000003f0: a6a9 80be 4c81 f53c 3802 0f3f d629 043f

fc1.bias f4 [128]
0.9034794 0.2763093 0.09193667 0.9136707 0.7498317 0.58147323 0.80158967 0.24514809
0.1472001 0.54672813 0.29427877 0.67489856 0.27611777 1.027872 1.0071884 0.6905797
0.8859152 0.48269722 0.6602475 0.7225892 0.74396837 0.24337325 0.8587433 1.1014906
0.49424756 0.60793084 0.6471215 0.37139368 0.056991473 0.41196698 0.13418552 0.39366117
1.0090954 0.72575575 0.5338154 0.2579374 0.3633753 0.405065 0.84840363 0.329313
0.11269942 1.1119602 0.38796645 0.4361369 0.9170127 0.9680775 0.18066029 0.5055011
0.12796968 0.3166111 1.1435574 0.90811723 1.07338 0.43584615 0.63268614 0.8094621
0.023215607 0.71514547 0.89545625 0.33927494 0.47512373 0.59949416 0.32649052 0.5339926
0.26054654 0.945819 0.59383553 0.66004217 0.58346134 0.886947 1.0124334 0.61121964
0.9807481 0.43620354 0.55653435 0.46712124 0.72359234 0.3998804 0.62905645 0.1734849
0.41546997 0.84494615 0.8459496 0.8708037 1.0150124 0.6223198 0.2639508 0.61669725
0.785915 0.39535713 0.007802692 0.71482766 0.21586233 0.6827834 0.01609364 0.3941498
0.17916255 0.6314866 0.45856303 0.42260486 0.637981 0.7051564 0.7708304 1.0091996
0.6136934 0.39489383 0.9168944 0.3523321 0.74801683 0.7347544 0.47541863 0.4193537
1.0813949 0.6049673 0.46033043 0.55728555 0.4413583 0.7317655 0.7755518 0.47263247
0.7832956 0.6457846 0.9945429 0.5705128 0.3615532 0.62742317 0.7217343 0.38621992
00000000: 6d4a 673f 6a78 8d3e 4b49 bc3d 53e6 693f
00000010: f8f4 3f3f 6edb 143f fb34 4d3f 1a08 7b3e
00000020: 9fbb 163e 60f6 0b3f b5ab 963e 27c6 2c3f
00000030: 4f5f 8d3e 4f91 833f 8deb 803f d5c9 303f
00000040: 57cb 623f 1724 f73e fb05 293f 9bfb 383f
00000050: b674 3e3f d636 793e 9ad6 5b3f a5fd 8c3f
00000060: 040e fd3e 5ba1 1b3f c1a9 253f 5027 be3e
00000070: e46f 693d 56ed d23e ee67 093e f58d c93e
00000080: 0a2a 813f 21cb 393f 20a8 083f 5f10 843e
00000090: 540c ba3e ae64 cf3e fb30 593f b79b a83e
000000a0: f4ce e63d b654 8e3f 8aa3 c63e 564d df3e
000000b0: 58c1 6a3f edd3 773f 03ff 383e 8568 013f
000000c0: 7c0a 033e da1a a23e 1760 923f 5f7a 683f
000000d0: 8464 893f 3a27 df3e b8f7 213f e838 4f3f
000000e0: a82e be3c c613 373f 9f3c 653f 72b5 ad3e
000000f0: 6b43 f33e 7378 193f c429 a73e bdb3 083f
00000100: 5b66 853e 3221 723f 9b05 183f 86f8 283f
00000110: b95d 153f f50e 633f 6b97 813f e478 1c3f
00000120: 4f12 7b3f 1256 df3e 0979 0e3f 842a ef3e
00000130: 593d 393f 20bd cc3e d809 213f 07a6 313e
00000140: 7bb8 d43e 644e 583f 2790 583f feec 5e3f
00000150: edeb 813f 5a50 1f3f 8f24 873e dfdf 1d3f
00000160: ba31 493f 406c ca3e b9ad ff3b f2fe 363f
00000170: 040b 5d3e e5ca 2e3f cfd6 833c 01ce c93e
00000180: 6376 373e 1ba9 213f c6c8 ea3e aa5f d83e
00000190: b952 233f 2185 343f 2455 453f 742d 813f
000001a0: 031b 1d3f 862f ca3e 97b9 6a3f df64 b43e
000001b0: 087e 3f3f dd18 3c3f 126a f33e 87b5 d63e
000001c0: 266b 8a3f 23df 1a3f 6eb0 eb3e 44aa 0e3f
000001d0: b7f9 e13e fc54 3b3f 908a 463f e2fc f13e
000001e0: 0f86 483f 2452 253f 5d9a 7e3f 200d 123f
000001f0: 801d b93e ce9e 203f 94c3 383f 9ebe c53e

fc2.weight f4 [64, 128]
0.41133848 0.2202142 0.18474121 0.47703052 0.3177517 0.45895487 0.38300014 0.04721007
0.39904413 0.1913586 0.4465657 0.36667007 0.26240027 0.38823438 0.36507922 0.3778046
0.3202365 0.38088477 0.2752423 0.41276658 0.4726985 0.30785534 0.446815 0.39129835
0.3474409 0.13284631 0.25284758 0.34323022 0.52308434 0.45113513 0.26467875 0.35093048
0.51325274 0.38835248 0.21384317 0.34076387 0.42979327 0.2072242 0.3973289 0.35090205
0.11631589 0.48858836 0.41319907 0.39410964 0.4951328 0.5424425 0.2115708 0.24630131
0.3420838 0.3437553 0.43148193 0.42599317 0.50230384 0.5224844 0.18058246 0.3307568
0.12379404 0.5246969 0.58014834 0.30997756 0.3609893 0.19991381 0.36706534 0.2631557
0.31330338 0.3826673 0.2789534 0.35872236 0.3763531 0.496845 0.30671385 0.36550424
0.2587721 0.3537456 0.4374682 0.39173222 0.32722607 0.19291098 0.32704994 0.48843014
0.5009656 0.3757879 0.61655384 0.4412615 0.44846714 0.27229956 0.026436338 0.34583056
0.40608028 0.32863945 0.4827099 0.30997097 0.31814352 0.40977046 0.11343132 0.20017125
0.42278296 0.34568134 0.44150317 0.35866532 0.43886274 0.2204079 0.3824021 0.4112458
0.13939938 0.33249098 0.38270074 0.2694776 0.43737504 0.3997486 0.30031982 0.4182381
0.51020926 0.45550254 0.39818773 0.38239157 0.2975213 0.40060833 0.36442986 0.35885423
0.3585918 0.41326988 0.5215781 0.40692726 0.33698058 0.39560547 0.6422314 0.13581695
0.44102803 0.3648505 0.07178492 0.537103 0.27797115 0.5099625 0.45739862 0.06991692
0.38623452 0.24628343 0.45607948 0.3257091 0.22186501 0.38291636 0.3740706 0.32104823
0.336904 0.37758988 0.33558905 0.41098276 0.41295746 0.2605473 0.4904627 0.49459708
0.39261135 0.11239116 0.26404718 0.3918565 0.41638702 0.5166374 0.24829742 0.47644517
0.36261916 0.387218 0.17583157 0.35346055 0.3882534 0.29915822 0.36870518 0.22749047
0.18548901 0.5113995 0.38492557 0.48753753 0.4219788 0.5439035 0.14392675 0.23632075
0.39538184 0.26986182 0.46776986 0.42457092 0.44894958 0.3974783 0.24379353 0.35172302
0.12663291 0.39020658 0.4189452 0.13563316 0.31142795 0.33944774 0.45489195 0.16992648
0.32428867 0.29200262 0.118523836 0.5110578 0.39069146 0.451514 0.26498473 0.4633847
0.28111172 0.46101746 0.38711253 0.43829772 0.28031927 0.20051476 0.2760327 0.47316235
0.35423067 0.40288386 0.50085264 0.44203258 0.41205207 0.3268228 0.17013825 0.37714928
0.4836022 0.3958578 0.58101803 0.3646326 0.25611475 0.45307922 0.038639534 0.20858802
0.3643685 0.25678116 0.33995786 0.37161455 0.41692337 0.2860478 0.32672018 0.48531604
0.2214073 0.16112533 0.33413836 0.2345107 0.37063766 0.35921702 0.11265625 0.39954674
0.43586254 0.49847576 0.26994315 0.53534764 0.41699216 0.48849037 0.3109394 0.3146792
0.27090204 0.40946186 0.44276205 0.44971654 0.37586287 0.4139334 0.6577847 0.18013945
00000000: f59a d23e d57f 613e cd2c 3d3e 583d f43e
00000010: 5ab0 a23e 22fc ea3e 9818 c43e 595f 413d
00000020: 834f cc3e 82f3 433e 42a4 e43e 2ebc bb3e
00000030: 5459 863e a8c6 c63e aaeb ba3e 9b6f c13e
00000040: 0af6 a33e 5403 c33e 8fec 8c3e 2456 d33e
00000050: 8a05 f23e 379f 9d3e f0c4 e43e 4258 c83e
00000060: c6e3 b13e dd08 083e 3d75 813e dfbb af3e
00000070: dbe8 053f 2ffb e63e f983 873e 29ad b33e
00000080: 8864 033f 23d6 c63e b4f9 5a3e 9a78 ae3e
00000090: dd0d dc3e 9532 543e b26e cb3e 6fa9 b33e
000000a0: 0637 ee3d 4128 fa3e d48e d33e bdc8 c93e
000000b0: 0c82 fd3e 83dd 0a3f 04a6 583e 6936 7c3e
000000c0: 9c25 af3e b200 b03e 33eb dc3e c71b da3e
000000d0: fc96 003f 8ac1 053f 9cea 383e f558 a93e
000000e0: bb87 fd3d 8952 063f 9a84 143f 61b5 9e3e
000000f0: 97d3 b83e 35b6 4c3e fdef bb3e 58bc 863e
00000100: 4d69 a03e f8ec c33e fbd2 8e3e 75aa b73e
00000110: 5bb1 c03e 7862 fe3e 9909 9d3e 5f23 bb3e
00000120: c77d 843e 251e b53e d5fb df3e 2091 c83e
00000130: 2d8a a73e 758a 453e 1773 a73e 8413 fa3e
00000140: 483f 003f 4667 c03e 79d6 1d3f 07ed e13e
00000150: 7c9d e53e d96a 8b3e 0591 d83c b410 b13e
00000160: c1e9 cf3e 6e43 a83e c125 f73e 84b4 9e3e
00000170: b5e3 a23e 6fcd d13e ae4e e83d b1f9 4c3e
00000180: 0277 d83e 25fd b03e b40c e23e fba2 b73e
00000190: 9eb2 e03e 9cb2 613e 35ca c33e cf8e d23e
000001a0: b6be 0e3e 423c aa3e 5af1 c33e f8f8 893e
000001b0: 9fef df3e d9ab cc3e 85c3 993e 4e23 d63e
000001c0: 139d 023f a137 e93e 43df cb3e d4c8 c33e
000001d0: b654 983e 891c cd3e 8d96 ba3e bebb b73e
000001e0: 5899 b73e 1c98 d33e 2486 053f c558 d03e
000001f0: b888 ac3e cd8c ca3e 4769 243f 9913 0b3e
00000200: 6dce e13e afcd ba3e f903 933d 957f 093f
00000210: 3c52 8e3e e78c 023f 2730 ea3e 9a30 8f3d
00000220: 88c0 c53e b931 7c3e 4083 e93e 58c3 a63e
00000230: 9530 633e 9d0d c43e 2f86 bf3e 6f60 a43e
00000240: ae7e ac3e 7653 c13e 54d2 ab3e 556c d23e
00000250: 296f d33e 7566 853e ed1d fb3e d43b fd3e
00000260: 5b04 c93e 562d e63d 3131 873e 6aa1 c83e
00000270: ae30 d53e 5942 043f ae41 7e3e 9ff0 f33e
00000280: 38a9 b93e 7041 c63e 310d 343e c8f8 b43e
00000290: 26c9 c63e 442b 993e edc6 bc3e 43f3 683e
000002a0: d5f0 3d3e 14eb 023f f714 c53e 859e f93e
000002b0: 9b0d d83e 433d 0b3f 8961 133e 11fe 713e
000002c0: 7d6f ca3e 542b 8a3e 887f ef3e 5c61 d93e
000002d0: b8dc e53e 4782 cb3e 03a5 793e 0a15 b43e
000002e0: 0fac 013e 28c9 c73e fc7f d63e 6be3 0a3e
000002f0: 7c73 9f3e 18cc ad3e 99e7 e83e 3501 2e3e
00000300: 2a09 a63e 5e81 953e a0bc f23d afd4 023f
00000310: b608 c83e d82c e73e 14ac 873e c240 ed3e
00000320: e0ed 8f3e 7b0a ec3e 9d33 c63e 8f68 e03e
00000330: 0286 8f3e be53 4d3e 2854 8d3e 5642 f23e
00000340: b95d b53e cb46 ce3e e137 003f 1852 e23e
00000350: 7df8 d23e 5155 a73e b938 2e3e b619 c13e
00000360: b59a f73e e0ad ca3e 99bd 143f 20b1 ba3e
00000370: 7921 833e 00fa e73e 7d44 1e3d 1998 553e
00000380: 828e ba3e d278 833e f50e ae3e 4344 be3e
00000390: fb76 d53e db74 923e de47 a73e 587b f83e
000003a0: 98b8 623e 0afe 243e 2f14 ab3e 9323 703e
000003b0: 38c4 bd3e 4beb b73e 52b8 e63d 6491 cc3e
000003c0: 6029 df3e 3738 ff3e fd35 8a3e 8b0c 093f
000003d0: ff7f d53e 691b fa3e 7333 9f3e a21d a13e
000003e0: acb3 8a3e fca4 d13e b5b1 e23e 3f41 e63e
000003f0: 1971 c03e 14ef d33e 9464 283f 7a76 383e

fc2.bias f4 [64]
0.4689056 0.39830047 -0.007487356 0.71851486 0.4262887 0.3292886 0.44920707 0.41167924
0.41843778 0.46067092 0.4509284 0.45954832 -0.091471285 0.017393855 0.32562545 0.4651413
0.303573 -1.0209247 0.35810715 0.44452077 0.3491522 -0.07766536 -0.055317093 0.29265153
0.42025906 -1.1765378 0.45393428 -0.2888902 0.29587445 0.056361318 0.43983993 0.6787187
0.41906157 0.40126425 0.44493347 0.3887517 0.31568512 0.41585222 0.44449452 1.3735231
0.31287155 0.40272877 0.36163107 0.41004664 -1.6000497 0.83456933 0.2960825 0.3895533
0.459966 0.3122225 0.8677258 0.42384544 -0.08072145 0.30729675 0.31666318 0.033256434
0.29235795 0.4337761 0.32946005 0.46349669 0.36201885 0.43947354 0.33792344 0.37713012
00000000: 6514 f03e 0aee cb3e 7f58 f5bb 97f0 373f
00000010: 8342 da3e 8498 a83e 78fe e53e 9fc7 d23e
00000020: 7a3d d63e 0fdd eb3e 16e0 e63e eb49 eb3e
00000030: 4c55 bbbd 8f7d 8e3c 61b8 a63e 0027 ee3e
00000040: ec6d 9b3e a9ad 82bf d259 b73e 3a98 e33e
00000050: 14c4 b23e 040f 9fbd 2d94 62bd 6cd6 953e
00000060: 322c d73e ca98 96bf 136a e83e 6be9 93be
00000070: db7c 973e 20db 663d b332 e13e 82c0 2d3f
00000080: 3d8f d63e 8272 cd3e 52ce e33e 760a c73e
00000090: 7ba1 a13e 95ea d43e c994 e33e 9bcf af3f
000000a0: b330 a03e 7732 ce3e b527 b93e a2f1 d13e
000000b0: 6ece ccbf 56a6 553f 2098 973e 8873 c73e
000000c0: aa80 eb3e a1db 9f3e 4723 5e3f 4502 d93e
000000d0: 4a51 a5bd 0056 9d3e ad21 a23e e637 083d
000000e0: f1af 953e e717 de3e fdae a83e 704f ed3e
000000f0: 895a b93e ad02 e13e 4d04 ad3e 3317 c13e

fc3.weight f4 [32, 64]
0.044575725 -0.07665886 0.04957173 -0.040233277 -0.09953204 0.012800263 0.05494897 -0.12790938
-0.12684987 -0.1224442 0.034679547 0.10486954 -0.015425109 -0.04937816 -0.055536456 -0.06335172
-0.08648389 0.098981895 -0.11894316 -0.091593094 0.09638269 0.06023792 -0.0029525347 0.0411651
0.052445095 -0.009218479 -0.037764877 -0.12078278 -0.10498104 0.11015237 -0.01286547 -0.022909846
0.10551563 0.07910619 0.08383695 -0.1276131 0.04747974 -0.09915744 -0.089478604 0.05220177
0.029177975 0.053113848 0.018616062 -0.07863656 0.042910114 0.067097336 -0.0706112 -0.028787833
0.024170902 0.078899994 0.02359505 0.0100353295 -0.070912294 0.06694915 0.11494404 -0.017222317
-0.067144774 -0.0034391037 0.03685705 0.057709165 -0.03217825 0.11132813 0.06955809 0.047500107
0.071490444 -0.1174298 -0.01893248 1.6955035 -0.018140482 0.082391165 0.17643765 -0.16629854
-0.1512672 0.03531646 -0.06669571 0.096335314 -0.113114186 0.108799435 0.15105657 0.051234085
0.06324879 2.1191533 0.0759422 0.16741015 -0.031064147 -0.018184302 -0.027386827 -0.009131128
0.07551066 2.1596518 -0.12484187 1.0677125 -0.13354713 0.07077954 0.010610843 1.6890215
-0.14552811 0.11484262 -0.09377651 -0.033480957 0.03994457 -0.07375661 0.023806341 2.2066977
0.121883176 -0.0208918 0.019040609 0.03155432 2.2478716 1.6219951 0.1352377 0.1326007
0.08767593 0.040091034 -1.47495 -0.0043788473 0.05462281 0.06477771 -0.22575407 0.03351383
0.039941404 -0.04919406 0.14030163 -0.20020007 0.16307057 -0.011132477 -0.16880225 0.055640798
-0.040671583 -0.07276474 -0.06327357 0.1009717 -0.10339399 -0.05520206 0.045003805 -0.07300985
-0.016742576 -0.06866941 -0.03126947 0.0058841277 0.08267405 -0.0052709132 -0.13248965 0.021973873
-0.12579228 -0.046586685 -0.0063553983 0.015216751 -0.09332913 -0.04580828 0.015153245 0.038172424
-0.10558034 0.062128067 0.092017666 -0.004874131 -0.12126933 -0.032038584 0.05472407 -0.00870423
0.0830245 -0.0038782451 0.0034993198 0.058458045 -0.07039733 -0.05311154 0.08961706 -0.0023813795
0.03423099 -0.053017106 -0.106076635 0.02024744 -0.06418133 0.008247381 0.11255166 -0.14045838
0.06729845 -0.10401068 0.116809055 -0.045222845 -0.091600455 -0.10376314 0.050934564 0.09237474
-0.09334022 -0.039055392 -0.0466477 0.041448448 -0.12581593 -0.013196939 0.051992714 -0.027631737
0.34073138 0.39789087 0.08875729 -1.6913493 0.3628332 0.34184572 0.27286392 0.51571494
0.47793457 0.4414522 0.2723043 0.49261758 -0.080107465 -0.006990325 0.45145714 0.3257099
0.3556633 -1.9046046 0.2772776 0.5110933 0.50907224 -0.022848591 -0.027462533 0.49630806
0.3664752 -1.6734807 0.36792356 -0.9616153 0.2938028 -0.06560591 0.41176152 -1.7131478
0.5082518 0.5119422 0.37623233 0.36804914 0.5100883 0.40042806 0.444051 -0.7674484
0.3925114 0.51212734 0.3479822 0.42258206 -0.95566785 -1.5329303 0.28852874 0.35838526
0.31472045 0.45367363 0.5342772 0.48622054 -0.05577539 0.45451462 0.37534627 0.10504737
0.34400016 0.27322555 0.28796944 0.40075076 0.4397635 0.45126483 0.39928368 0.4036843
00000000: 0995 363d 52ff 9cbd ba0b 4b3d a6cb 24bd
00000010: 74d7 cbbd 32b8 513c 2c12 613d adfa 02be
00000020: efe4 01be 06c4 fabd 240c 0e3d d7c5 d63d
00000030: 99b9 7cbc c140 4abd 327a 63bd 8cbe 81bd
00000040: 771e b1bd 05b7 ca3d 7998 f3bd 2995 bbbd
00000050: 4a64 c53d 0abc 763d 507f 41bb bc9c 283d
00000060: abd0 563d 1a09 17bc 58af 1abd f65c f7bd
00000070: 4d00 d7bd 9197 e13d b1c9 52bc 6ead bbbc
00000080: 9418 d83d 6d02 a23d b5b2 ab3d 02ad 02be
00000090: 1e7a 423d 0e13 cbbd 8f40 b7bd 86d1 553d
000000a0: a606 ef3c e88d 593d b680 983c 340c a1bd
000000b0: 84c2 2f3d 546a 893d 9b9c 90bd 76d4 ebbc
000000c0: 0e02 c63c 5296 a13d 684a c13c 396b 243c
000000d0: 773a 91bd a31c 893d c867 eb3d d115 8dbc
000000e0: 3383 89bd 9662 61bb 6bf7 163d 7260 6c3d
000000f0: 57cd 03bd 0100 e43d 7974 8e3d 798f 423d
00000100: 9569 923d 097f f0bd 4a18 9bbc 4206 d93f
00000110: 599b 94bc b3bc a83d 12ac 343e 2a4a 2abe
00000120: cae5 1abe fea7 103d c397 88bd 734b c53d
00000130: 69a8 e7bd 3dd2 de3d 93ae 1a3e d5da 513d
00000140: 9588 813d 35a0 0740 9687 9b3d 916d 2b3e
00000150: 3d7a febc 3ff7 94bc 575a e0bc ba9a 15bc
00000160: 55a5 9a3d bc37 0a40 18ad ffbd ceaa 883f
00000170: 94c0 08be ddf4 903d 1ad9 2d3c db31 d83f
00000180: 5205 15be 9c32 eb3d e60d c0bd 5423 09bd
00000190: eb9c 233d b50d 97bd 8405 c33c 893a 0d40
000001a0: e39d f93d 4825 abbc 0dfb 9b3c 1a3f 013d
000001b0: 21dd 0f40 899d cf3f c07b 0a3e 7ac8 073e
000001c0: 708f b33d 7f36 243d 29cb bcbf 6f7c 8fbb
000001d0: 2bbc 5f3d 2daa 843d 132c 67be cc45 093d
000001e0: 9999 233d b67f 49bd 3bab 0f3e 3f01 4dbe
000001f0: f9fb 263e fe64 36bc 7fda 2cbe 9be7 633d
00000200: 3f97 26bd ae05 95bd 9395 81bd 40ca ce3d
00000210: 3ac0 d3bd 8e1b 62bd e955 383d 3086 95bd
00000220: ba27 89bc 8ca2 8cbd 6a14 00bd a4cf c03b
00000230: 0351 a93d a0b7 acbb 5eab 07be 8d02 b43c
00000240: b1cf 00be aed1 3ebd f240 d0bb ae4f 793c
00000250: 5823 bfbd 77a1 3bbd 5145 783c b05a 1c3d
00000260: 813a d8bd 007a 7e3d c273 bc3d 2db7 9fbb
00000270: 0e5c f8bd e43a 03bd 5926 603d 309c 0ebc
00000280: c008 aa3d 282a 7ebb d854 653b b471 6f3d
00000290: 7a2c 90bd 7c8b 59bd 2689 b73d eb10 1cbb
000002a0: cb35 0c3d 7728 59bd b53e d9bd f6dd a53c
000002b0: 8071 83bd 0620 073c 7c81 e63d 52d4 0fbe
000002c0: c5d3 893d 8d03 d5bd 9639 ef3d 973b 39bd
000002d0: 0599 bbbd c581 d4bd c3a0 503d f82e bd3d
000002e0: 2829 bfbd 8cf8 1fbd a911 3fbd d9c5 293d
000002f0: e4d5 00be f937 58bc 50f6 543d f45b e2bc
00000300: 5874 ae3e 5ab8 cb3e 62c6 b53d 227e d8bf
00000310: 46c5 b93e 6706 af3e d2b4 8b3e e505 043f
00000320: d7b3 f43e 0606 e23e 786b 8b3e 5f38 fc3e
00000330: 620f a4bd 190f e5bb 6425 e73e 73c3 a63e
00000340: 8019 b63e 15ca f3bf 54f7 8d3e 03d7 023f
00000350: 8f52 023f f82c bbbc 1bf9 e0bc 171c fe3e
00000360: a3a2 bb3e 9e34 d6bf 7a60 bc3e 6c2c 76bf
00000370: 526d 963e 645c 86bd 68d2 d23e 6d48 dbbf
00000380: ca1c 023f a50e 033f 86a1 c03e f070 bc3e
00000390: 2695 023f e804 cd3e a75a e33e 8077 44bf
000003a0: 41f7 c83e c71a 033f b92a b23e ad5c d83e
000003b0: a6a6 74bf 0f37 c4bf 0aba 933e 467e b73e
000003c0: 0a23 a13e e947 e83e 64c6 083f e6f1 f83e
000003d0: bc74 64bd 24b6 e83e 632d c03e 1323 d73d
000003e0: ca20 b03e 38e4 8b3e bb70 933e 342f cd3e
000003f0: ae28 e13e 2f0c e73e e96e cc3e b5af ce3e

fc3.bias f4 [32]
-0.06391697 0.45769352 0.059873983 0.29434976 0.2475106 0.011784713 0.18823871 0.18426059
-0.016849635 -0.09518434 0.38067812 -0.064557254 0.42258883 -0.001058868 0.33880934 0.34644648
0.25543445 0.27269617 0.38720483 0.36735457 0.06465684 0.0116814375 0.25941464 -0.13186616
-0.0007313058 0.031757772 0.21425045 0.3233171 0.052941117 -0.09736109 0.28300333 0.0696757
00000000: e6e6 82bd ce56 ea3e 6c3e 753d 03b5 963e
00000010: 6b73 7d3e ab14 413c a6c1 403e cfae 3c3e
00000020: 3f08 8abc 02f0 c2bd 3ee8 c23e 9836 84bd
00000030: 905d d83e b7c9 8aba 6b78 ad3e 6f61 b13e
00000040: 4ec8 823e d59e 8b3e b63f c63e e615 bc3e
00000050: ce6a 843d 8063 3f3c ffd1 843e ec07 07be
00000060: 1ab5 3fba 7014 023d 7864 5b3e d289 a53e
00000070: c9d8 583d 4065 c7bd d0e5 903e 22b2 8e3d

fc4.weight f4 [1, 32]
-0.024630846 -1.9590605 -0.105325796 0.5301234 0.59321994 -0.061253406 0.5155294 0.57450205
-0.081213035 -0.13402371 0.4241595 -0.047859292 0.44266886 0.0037824705 0.60929275 0.5209279
0.58512634 0.50486106 0.48791775 0.58651924 -0.070330426 -0.13443066 0.58184296 -0.101969704
-0.08663443 -0.0034953977 0.45640326 0.5928913 -0.13586245 -0.1538538 0.43894362 -0.0135528585
00000000: a1c6 c9bc 7fc2 fabf 0db5 d7bd 2bb6 073f
00000010: 43dd 173f dae4 7abd bcf9 033f 9112 133f
00000020: 0553 a6bd 833d 09be 6f2b d93e 1b08 44bd
00000030: 7ea5 e23e 53e3 773b 9cfa 1b3f 885b 053f
00000040: d7ca 153f 933e 013f 5bd0 f93e 2026 163f
00000050: 6609 90bd 31a8 09be a9f3 143f 7ed5 d0bd
00000060: 646d b1bd 0b13 65bb b0ad e93e b9c7 173f
00000070: 871f 0bbe da8b 1dbe 38bd e03e cf0c 5ebc
