gcn_model.pth (torch, 2271 bytes, 3 tensors)

conv1.bias f4 [16]
00000000: b5f4 7bbf 0000 0000 5774 a0bd 0364 16c0
00000010: 0000 0000 0000 0000 0efd 09bf 0000 0000
00000020: 0000 0000 0000 0000 da5c 7bbd 0000 0000
00000030: ee9a 2f40 0000 0000 999e 703f 0000 0000
-0.9842027 0.0 -0.0783469 -2.3498542 0.0 0.0 -0.53901756 0.0
0.0 0.0 -0.061367847 0.0 2.7438312 0.0 0.93992 0.0

conv1.lin.weight f4 [16, 8]
00000000: c990 5e3f 5061 3d3f 5964 053f 5cc6 e4bd
00000010: 92d0 fb3e 0909 1bbe 688a 90bd 4fcd 143f
00000020: d0e9 cd3e 2046 bdbd 66b9 c5be 209a 043e
00000030: 4471 b5be d634 fabe d4f2 82be c280 e13e
00000040: d7e6 0c3e 2cbe 73be 5d55 c43e d784 c13d
00000050: 61e5 453e 81c1 babe 9c74 3cbe b3fe 583e
00000060: 4100 fa3f 29aa ec3f fce7 f53f 7dfe 3abe
00000070: 3f66 1e3c bfea b53e 92e6 19bf f08a 1e40
00000080: 9c22 91be 70f6 363d bcfc 6f3e 1824 42be
00000090: 407f 633c f07e 52bd 3ee2 cc3e d851 e03e
000000a0: c85d f7bd 78db 96bd 4046 9ebd 3aaf c9be
000000b0: 3401 fdbe c085 fd3c 30ce c73d 00f9 bb3e
000000c0: 4d36 4d3b e9f3 2d3f 2609 1b3f 4fa9 f93e
000000d0: 62e5 313e 27b9 87be 85dc 1b3d 0628 b93e
000000e0: d861 a8be 6ca6 433e 2cd6 3b3e 0084 82be
000000f0: 3af7 f3be 5a7f c53e 3018 273d c62b 983e
00000100: 8eea bebe 26e6 c73e 702f 0abd 54d0 5ebe
00000110: 8054 03bd 920b b8be 481d 9bbe 6616 d73e
00000120: 20da 60be 903e 42bd 78c5 fb3e 3459 75be
00000130: ca2c 9f3e 5016 f7be 2c84 a93e e8c3 f13d
00000140: 4043 413e 818a 0abf 75ce 1f3e 9a16 7abe
00000150: 229c 29be 384a 243e 51be 733e 7006 453e
00000160: e664 83be d0a3 68be 9a69 873e e04b aabe
00000170: 6ab8 88be 80cc a1bd b4d3 bb3e 1a24 9dbe
00000180: da7e 8ac0 c81a 41c0 3747 80c0 60b7 5e3e
00000190: 7001 bebe 0542 4b3e 1b67 0240 bcf7 9cc0
000001a0: 0a17 bf3e 906e 4b3e aee3 983e 1098 d3be
000001b0: c2a7 f23e 604a ccbe fcb9 0b3e 98f4 acbd
000001c0: 2cf9 bbbe 314c 81bf 12a3 3dbf 7d2a b83e
000001d0: c7ac 3d3e 9f33 2e3d 7b91 193f c3cf 95bf
000001e0: 7601 f83e c045 29bc d008 fc3d f656 afbe
000001f0: 20c6 c2be ac57 22be 18d4 7fbe 74be 1f3e
0.86939675 0.7397661 0.52106243 -0.111706465 0.49182564 -0.15140165 -0.07057649 0.58125776
0.40217447 -0.09241891 -0.3861801 0.12949419 -0.35437977 -0.48868436 -0.25575888 0.44043547
0.13759933 -0.23803014 0.38346377 0.09449165 0.19325782 -0.36475757 -0.18403858 0.2119091
1.9531327 1.8489429 1.9211421 -0.18261142 0.009667932 0.3553066 -0.6011745 2.47723
-0.28346717 0.044668615 0.23436254 -0.18959081 0.013885319 -0.05139059 0.4001636 0.43812442
-0.12078434 -0.07366079 -0.07728243 -0.393915 -0.4941498 0.030947566 0.09756124 0.3671341
0.0031312883 0.679503 0.60560834 0.48761985 0.17372659 -0.26508448 0.0380521 0.36163348
-0.3288715 0.19106454 0.18343419 -0.25491333 -0.47649556 0.38573724 0.04079455 0.29720896
-0.37288326 0.39042777 -0.033736646 -0.21759158 -0.032063007 -0.35946327 -0.30295777 0.42009276
-0.21958208 -0.047422945 0.49174094 -0.2395981 0.3108886 -0.4825921 0.33108652 0.11804944
0.1887331 -0.5411759 0.15606101 -0.24422684 -0.16563466 0.16043937 0.23803069 0.19240737
-0.25662917 -0.2271874 0.26447755 -0.33261013 -0.26703197 -0.079003334 0.36684954 -0.30691606
-4.327985 -3.0172596 -4.008693 0.2174964 -0.37110472 0.19849403 2.037543 -4.905241
0.37322265 0.19866395 0.29861206 -0.41326952 0.47393614 -0.39900494 0.13645166 -0.0844509
-0.3671354 -1.0101377 -0.7407695 0.35969916 0.1852294 0.0425297 0.5998761 -1.1704029
0.48438615 -0.010331571 0.12306368 -0.34246033 -0.38041782 -0.15853757 -0.24983251 0.15599996

conv2.lin.weight f4 [1, 16]
00000000: 91a3 0fbf acbc 73be 1c09 56bc 647c 95bd
00000010: f4b3 2a3e c32a 13bf 5fd6 a5bd be3c 013f
00000020: b7f2 8dbe 28f5 eabe b507 013f 00eb 21bc
00000030: 36f0 ae3e 3865 0dbf 7484 f23e b000 8b3e
-0.5610896 -0.23802441 -0.013063695 -0.07299116 0.16670209 -0.57487124 -0.08097529 0.5048331
-0.2772424 -0.45890164 0.50402385 -0.0098826885 0.3416764 -0.5523257 0.4736668 0.27148962
