mlp_model.pth (torch, 15119 bytes, 7 tensors)

layer1.weight f4 [64, 8]
0.05981843 0.05832001 -0.022720717 0.70374906 0.03581721 -0.6145618 0.71655846 0.106936395
-0.03873735 0.017108722 -0.008963543 0.0057338714 0.14634572 0.0048554107 0.84285575 -0.030155178
-0.03812075 0.04956517 -0.06959507 0.18072216 -0.14130662 0.13301173 0.81168073 0.056090526
0.014078258 -0.09775255 -0.055506032 0.36597687 -0.05706257 -0.06716527 0.915019 0.0906666
0.059252467 -0.03381264 -0.012040444 0.8528012 0.07364554 -0.73795563 0.8371352 0.05135889
0.08230921 0.17720921 -0.061060004 0.7206269 -0.11140323 -0.6088222 0.87671846 0.061391734
0.05997762 0.09382645 0.029746186 -0.22144283 -0.18811953 0.21216038 0.709484 0.020193601
-0.019187398 -0.014144337 -0.07489216 0.9531746 -0.5413527 -0.201025 0.7580653 0.07010355
0.08236295 0.03656004 0.042778794 0.10842686 -0.0040813317 -0.22930679 0.8821301 -0.08238969
-0.04715376 0.019889541 -0.010559815 0.14507018 0.21558309 -0.17548446 0.8241843 0.07779994
0.11378995 0.11331907 0.03121888 0.041710027 0.052306518 -0.3451797 0.8129931 -0.14396314
0.15929908 -0.3189562 0.03613315 -0.46231145 0.4282861 0.071716145 0.9210608 0.20137054
0.031474903 -0.18815672 -0.011825395 -0.1664437 0.02604772 0.30019483 0.74584836 0.055791162
0.45976308 0.0665641 -0.06709022 -0.08757767 0.11192432 1.1535656 1.2349856 0.106666096
0.6910336 0.4441405 0.096249446 -0.12473994 -0.29921985 0.4387404 0.8055046 -0.05947423
-0.07533279 -0.15111388 0.035828363 0.17469287 0.31754723 -0.15386961 0.8675374 0.04714567
0.026904644 0.011532291 -0.011625873 0.6913884 -0.11712142 -0.43956804 0.8389276 0.07560125
0.0745994 0.016157556 -0.008308976 0.47132212 -0.12908983 -0.2205874 0.855828 0.016088149
0.045977782 0.024694005 -0.01766035 0.4731918 -0.11060104 -0.31312516 0.8918571 0.040247276
-0.061811537 -0.09600292 -0.00037394612 0.08512313 0.24820735 -0.059341278 0.8791712 -0.005355575
-0.04303736 -0.07207055 0.0138635095 0.022551274 0.16515252 -0.008633458 0.7806137 -0.028682383
-0.050072726 0.06603199 -0.19753289 1.7248924 -0.97930914 -0.15126815 0.4225937 0.29986432
-0.032145966 -0.09461135 -0.013424654 0.06301918 -0.004887585 0.12192062 0.76423687 -0.00029467785
0.048602533 -0.031714994 0.08323135 0.16384067 -0.17390099 0.20214017 0.8060842 0.055171285
0.041959874 0.10962251 0.017807947 -0.23531888 0.18997137 -0.17312452 0.7320902 0.033718374
0.027188119 -0.10127231 -0.04645139 0.13392738 -0.04488112 -0.03637075 0.8777305 0.056053016
0.202873 0.7560355 0.10077216 0.6805595 -0.49505448 -1.2789685 0.37179202 0.38789997
-0.06362949 -0.1148109 0.005657421 0.3470739 0.20899482 -0.25063336 0.8329267 0.07086155
0.037799995 -0.07107399 -0.029823879 0.63990116 -0.0068012374 -0.489458 0.90982646 0.04145321
0.65083337 0.35852116 0.010498375 0.52480096 -0.4779622 0.04029074 0.73111403 -0.08595139
0.101013385 0.41456124 1.3588976 -0.63868487 -0.5461441 -0.5454111 0.36154333 0.74764353
0.18602607 0.44456622 -0.694115 0.5962138 -0.55826575 0.33141172 0.77141225 -0.59205854
00000000: 2c04 753d f6e0 6e3d cc20 babc e628 343f
00000010: 11b5 123d ec53 1dbf 6070 373f 7801 db3d
00000020: 0eab 1ebd 9727 8c3c d3db 12bc 33e3 bb3b
00000030: a7db 153e 231a 9f3b 65c5 573f fe07 f7bc
00000040: 8124 1cbd d904 4b3d dc87 8ebd 3b0f 393e
00000050: afb2 10be 3a34 083e 4fca 4f3f 2ebf 653d
00000060: 7ea8 663c 7d32 c8bd 4b5a 63bd 5261 bb3e
00000070: 71ba 69bd f28d 89bd af3e 6a3f 69af b93d
00000080: b7b2 723d 1f7f 0abd 4845 45bc 2e51 5a3f
00000090: 79d3 963d a9ea 3cbf 7e4e 563f b35d 523d
000000a0: bb91 a83d 5576 353e 0e1a 7abd 017b 383f
000000b0: 6027 e4bd c6db 1bbf 9f70 603f e675 7b3d
000000c0: 18ab 753d 1528 c03d 46ae f33c e9c1 62be
000000d0: 68a2 40be 9240 593e bea0 353f 0d6d a53c
000000e0: e42e 9dbc a6bd 67bc 1061 99bd 4003 743f
000000f0: 1796 0abf 7fd9 4dbe 9110 423f 7392 8f3d
00000100: e8ad a83d fbbf 153d d138 2f3d e70e de3d
00000110: b1bc 85bb 66cf 6abe 47d3 613f edbb a8bd
00000120: 4d24 41bd 64ef a23c 1303 2dbc 478d 143e
00000130: d0c1 5c3e 33b2 33be befd 523f 9355 9f3d
00000140: b50a e93d d413 e83d bdbe ff3c 22d8 2a3d
00000150: 5c3f 563d 65bb b0be 5120 503f 136b 13be
00000160: 4c1f 233e 3a4e a3be 5b00 143d 16b4 ecbe
00000170: 5148 db3e eadf 923d a4ca 6b3f 1434 4e3e
00000180: d4eb 003d 28ac 40be 4dbf 41bc 3870 2abe
00000190: 0762 d53c 23b3 993e ebef 3e3f 4685 643d
000001a0: 1166 eb3e c252 883d 9966 89bd ec5b b3bd
000001b0: 9438 e53d 0aa8 933f 0214 9e3f c173 da3d
000001c0: 94e7 303f 6266 e33e 6e1e c53d a777 ffbd
000001d0: 5833 99be 95a2 e03e 8d35 4e3f 409b 73bd
000001e0: 1448 9abd 99bd 1abe c3c0 123d b0e2 323e
000001f0: 8d95 a23e ff8f 1dbe ee16 5e3f d11b 413d
00000200: 2167 dc3c eff1 3c3c 727a 3ebc d5fe 303f
00000210: 5bdd efbd 100f e1be f6c3 563f d4d4 9a3d
00000220: 92c7 983d da5c 843c 5f22 08bc 2251 f13e
00000230: 2030 04be aae1 61be 8b17 5b3f 4bcb 833c
00000240: 3353 3c3d 154b ca3c 70ac 90bc 3246 f23e
00000250: cc82 e2bd f151 a0be bf50 643f 54da 243d
00000260: 182e 7dbd 2e9d c4bd 330e c4b9 0955 ae3d
00000270: 112a 7e3e d70f 73bd 5d11 613f d27d afbb
00000280: f147 30bd b999 93bd c623 633c 73bd b83c
00000290: be1d 293e 5973 0dbc 4dd6 473f 51f7 eabc
000002a0: 0f19 4dbd c83b 873d 1046 4abe 46c9 dc3f
000002b0: 01b4 7abf 0ae6 1abe 345e d83e d187 993e
000002c0: 7dab 03bd 98c3 c1bd 14f3 5bbc 3310 813d
000002d0: 0928 a0bb 85b1 f93d 07a5 433f fe7e 9ab9
000002e0: 7313 473d 95e7 01bd 3375 aa3d d9c5 273e
000002f0: 1a13 32be d5fd 4e3e 895b 4e3f 49fb 613d
00000300: 1ede 2b3d c481 e03d f9e1 913c 6ff7 70be
00000310: db87 423e 8e47 31be 436a 3b3f 471c 0a3d
00000320: 9eb9 de3c db67 cfbd d043 3ebd 4224 093e
00000330: 44d5 37bd 7ff9 14bd f2b2 603f d997 653d
00000340: f1bd 4f3e 8b8b 413f a261 ce3d 2639 2e3f
00000350: c877 fdbe 3db5 a3bf 865b be3e d39a c63e
00000360: 2e50 82bd fa21 ebbd e361 b93b acb3 b13e
00000370: bd02 563e 0453 80be af3a 553f dc1f 913d
00000380: 2bd4 1a3d 3d8f 91bd 3551 f4bc 90d0 233f
00000390: eadc debb 3d9a fabe 63ea 683f d7ca 293d
000003a0: 049d 263f 1690 b73e 6001 2c3c 5b59 063f
000003b0: 76b7 f4be e707 253d 4a2a 3b3f 4807 b0bd
000003c0: 1be0 ce3d 5f41 d43e 5bf0 ad3f da80 23bf
000003d0: 1ad0 0bbf 10a0 0bbf 351c b93e 9165 3f3f
000003e0: 9e7d 3e3e 2f9e e33e 85b1 31bf 78a1 183f
000003f0: 81ea 0ebf ccae a93e 467b 453f 2691 17bf

layer1.bias f4 [64]
0.6948802 1.0850012 0.97155374 0.9310807 0.7909497 0.8525141 1.0622138 0.78336924
0.89849067 1.0338638 0.8828822 1.027386 0.8615454 -0.58523315 -0.018253034 1.0694712
0.836099 0.8479059 0.8500054 1.1260428 1.0609713 0.06637102 1.0654644 0.9081253
1.1354717 0.92496103 0.23454767 0.9424505 0.8985067 -0.013514643 -0.92768383 -0.5208772
-1.0090603 -0.54503536 0.7702393 0.9165748 0.8310435 1.1319261 0.9288413 1.0992236
1.0942483 -0.5088311 0.9393838 0.9449276 -1.9516152 0.017630063 1.0023388 -0.28274858
0.9409423 0.9223781 1.0844194 -2.8032262 -2.8498797 -0.5573221 -0.38059726 0.7988225
1.1028968 -0.7736308 -0.37287906 1.0963669 0.011548237 1.1091567 0.9859344 0.74453646
00000000: abe3 313f 52e1 8a3f bfb7 783f 4e5b 6e3f
00000010: ae7b 4a3f 5d3e 5a3f 9ff6 873f e38a 483f
00000020: 7c03 663f a655 843f 9104 623f 6281 833f
00000030: 3d8e 5c3f d7d1 15bf 6387 95bc 6fe4 883f
00000040: 960a 563f 5c10 593f f499 593f 2c22 903f
00000050: e8cd 873f 88ed 873d 2361 883f e67a 683f
00000060: 2357 913f 3fca 6c3f 442d 703e 7044 713f
00000070: 8904 663f 856c 5dbc b07c 6dbf 3558 05bf
00000080: e328 81bf 7087 0bbf 672e 453f a5a4 6a3f
00000090: 44bf 543f f4e2 903f 8bc8 6d3f 5cb3 8c3f
000000a0: 5410 8c3f c142 02bf 757b 703f c6e6 713f
000000b0: 87ce f9bf ec6c 903c a34c 803f 6cc4 90be
000000c0: 98e1 703f f920 6c3f 41ce 8a3f 0f68 33c0
000000d0: 6e64 36c0 a9ac 0ebf a5dd c2be a27f 4c3f
000000e0: b92b 8d3f ab0c 46bf 01ea bebe c055 8c3f
000000f0: d134 3d3c d9f8 8d3f 3266 7c3f f199 3e3f

layer2.weight f4 [32, 64]
0.30346212 0.19601727 0.24178894 0.34771487 0.19491437 0.2239252 0.38338786 0.31018183
0.37595317 0.28300872 0.04934219 0.1793651 0.36870047 0.4782273 0.37527895 0.26563847
0.0904767 0.34115097 0.42565942 0.20968588 0.21985307 0.6905903 0.33273137 0.015591676
0.5299382 0.29575723 0.5086514 0.11345665 0.30344325 0.55407846 0.53030145 0.6361718
0.62241614 0.32257417 0.2374293 0.17004584 0.33107728 0.2284812 0.34945273 0.27374208
0.23917563 0.36093915 0.49032462 0.32805946 3.6431677 0.048127383 0.21531664 0.27708632
0.34588793 0.3507974 0.30800936 3.308846 5.330876 0.24794978 0.068508364 0.4095941
0.20040596 0.19007993 0.43338856 0.23926364 0.42590818 0.27839506 0.05387597 0.46157682
0.41833276 0.20632204 0.3282992 0.14214788 0.5100583 0.28300807 0.31989256 0.2670632
0.4369712 0.39333257 0.14207841 0.23798066 0.18276846 0.3643071 0.41009596 0.3225947
0.5095751 0.30469313 0.2632278 0.16049154 0.13167964 0.49850145 0.41467008 0.24786712
0.21675818 0.27411956 0.2932718 0.23935963 0.36138266 0.42189425 0.62218374 0.55159277
0.6011457 0.2137178 0.5066187 0.36378777 0.40842506 0.3632095 0.28553843 0.40839097
0.38354847 0.3289488 0.09765982 0.42156598 3.1682112 0.2809441 0.3004234 0.50699097
0.18037787 0.314221 0.26325095 2.9496593 5.051975 0.32248768 0.4386605 0.20816904
0.22580889 0.31163487 0.25381398 0.12068582 0.40957865 0.21508497 0.3590372 0.3919621
0.13898307 -1.9289043 -0.50056535 -0.015856972 0.43628028 0.3268242 -2.8175263 0.41246304
-0.14008842 -0.9495175 -0.32783422 -5.0580893 -1.355808 1.5650283 0.5552669 -1.1245238
0.3706252 0.36100572 0.38585904 -1.6536481 -2.1801507 0.44141117 -1.9972445 -0.26356006
-2.7228189 -0.15774663 0.21123242 -0.19863266 0.28224787 0.37054077 -4.835256 0.9250498
0.9995755 1.7003392 0.33630267 -0.45896053 0.15934697 -2.5537481 -0.28380015 -2.3918803
-2.779391 1.0620115 0.091276094 -0.7373614 3.9749305 0.9200428 -1.692761 -0.051054906
-0.2010496 -0.009669785 -2.313645 -0.18592812 7.350249 -0.5237176 0.36207995 0.43928787
-1.0002058 1.37221 1.0338999 -1.744974 0.3393239 -2.616255 -1.930785 0.35169497
0.52900344 0.3424074 0.1538636 0.25709918 0.38391215 0.21864519 0.18663284 0.39741412
0.26257962 0.34271234 0.28943253 0.26543027 0.29121265 0.5145332 0.34147152 0.40866184
0.44354215 0.33690965 0.29332188 0.1539898 0.24200958 0.43124217 0.46987376 0.4446711
0.25936672 0.22017021 0.44393128 0.35732374 0.37990907 0.3378331 0.59824324 0.537712
0.929926 0.46491635 0.5133471 0.41941476 0.32164958 0.4238691 0.32707173 0.21652624
0.20382814 0.61544144 0.15335052 0.42499444 3.187182 0.2690736 0.14389199 0.25117818
0.31678832 0.18092608 0.2369108 3.3302503 4.9447355 0.49181768 0.6351328 0.37067246
0.13251707 0.6938874 0.37574446 0.27157143 0.4133201 0.2967699 0.07831976 0.2493554
00000000: 635f 9b3e c0b8 483e 8597 773e af07 b23e
00000010: a297 473e a64c 653e 6a4b c43e 27d0 9e3e
00000020: ef7c c03e 85e6 903e 091b 4a3d 7cab 373e
00000030: 4fc6 bc3e 35da f43e 9024 c03e c401 883e
00000040: d94b b93d 57ab ae3e 08f0 d93e e5b7 563e
00000050: 2a21 613e 87ca 303f c45b aa3e 3b74 7f3c
00000060: 08aa 073f 7e6d 973e fa36 023f f65b e83d
00000070: ea5c 9b3e 16d8 0d3f d6c1 073f 28dc 223f
00000080: aa56 1f3f 7128 a53e ab20 733e 7f20 2e3e
00000090: f682 a93e faf6 693e 78eb b23e ec27 8c3e
000000a0: 75ea 743e 04cd b83e d40b fb3e 69f7 a73e
000000b0: a929 6940 3821 453d f77b 5c3e 42de 8d3e
000000c0: 3918 b13e b89b b33e 67b3 9d3e 22c4 5340
000000d0: 8996 aa40 8ce6 7d3e 1d4e 8c3d 51b6 d13e
000000e0: 3837 4d3e 50a4 423e 1be5 dd3e 8701 753e
000000f0: a310 da3e cc89 8e3e 0dad 5c3d cc53 ec3e
00000100: b62f d63e 1646 533e d516 a83e 378f 113e
00000110: 2e93 023f 6fe6 903e f5c8 a33e 82bc 883e
00000120: b0ba df3e e362 c93e 017d 113e 34b1 733e
00000130: a827 3b3e 7686 ba3e 19f8 d13e 222b a53e
00000140: 8473 023f bd00 9c3e cbc5 863e e557 243e
00000150: 07d7 063e 953b ff3e a34f d43e e1d0 7d3e
00000160: dbf5 5d3e 6659 8c3e b927 963e b11a 753e
00000170: 2607 b93e 8602 d83e 6f47 1f3f 2f35 0d3f
00000180: afe4 193f d7d8 5a3e c3b1 013f 6442 ba3e
00000190: 171d d13e 98f6 b93e 1832 923e 9f18 d13e
000001a0: 7760 c43e fa6b a83e df01 c83d 7fd7 d73e
000001b0: f9c3 4a40 e8d7 8f3e 19d1 993e 29ca 013f
000001c0: fab4 383e 93e1 a03e d4c8 863e 38c7 3c40
000001d0: c7a9 a140 1b1d a53e 1c98 e03e 442a 553e
000001e0: 723a 673e 9b8e 9f3e e8f3 813e 212a f73d
000001f0: 4bb4 d13e 3c3f 5c3e b9d3 b73e 42af c83e
00000200: 9451 0e3e 56e6 f6bf 0d25 00bf 7be6 81bc
00000210: 2160 df3e 8055 a73e 5a52 34c0 5b2e d33e
00000220: 5773 0fbe 9413 73bf e3d9 a7be dedb a1c0
00000230: 1e8b adbf d952 c83f f925 0e3f 65f0 8fbf
00000240: 96c2 bd3e bed5 b83e 518f c53e beaa d3bf
00000250: 9787 0bc0 a500 e23e b5a5 ffbf 58f1 86be
00000260: aa42 2ec0 5588 21be 504d 583e 5c66 4bbe
00000270: cb82 903e 85b7 bd3e 6bba 9ac0 10d0 6c3f
00000280: 2ee4 7f3f b7a4 d93f dd2f ac3e e0fc eabe
00000290: da2b 233e 9c70 23c0 414e 91be 9114 19c0
000002a0: 8be1 31c0 feef 873f f6ee ba3d b7c3 3cbf
000002b0: 4365 7e40 ed87 6b3f 64ac d8bf f31e 51bd
000002c0: f2df 4dbe 056e 1ebc c212 14c0 f163 3ebe
000002d0: 3d35 eb40 5b12 06bf 8b62 b93e 57ea e03e
000002e0: be06 80bf 94a4 af3f d556 843f 4f5b dfbf
000002f0: ddbb ad3e b970 27c0 f623 f7bf 5d11 b43e
00000300: c56c 073f 0650 af3e 6b8e 1d3e 81a2 833e
00000310: 2290 c43e 86e4 5f3e ae1c 3f3e dd79 cb3e
00000320: d670 863e fe77 af3e 8030 943e 7ae6 873e
00000330: d319 953e 73b8 033f 5bd5 ae3e 203c d13e
00000340: f517 e33e 6c7f ac3e 492e 963e 81af 1d3e
00000350: 5cd1 773e c6cb dc3e 4b93 f03e eeab e33e
00000360: b7cb 843e 4d74 613e f64a e33e 23f3 b63e
00000370: 7183 c23e 76f8 ac3e 7826 193f 7ea7 093f
00000380: a10f 6e3f 8409 ee3e b76a 033f 88bd d63e
00000390: 41af a43e 5f05 d93e f275 a73e 0eb9 5d3e
000003a0: 53b8 503e 928d 1d3f eb07 1d3e df98 d93e
000003b0: cafa 4b40 04c4 893e 6c58 133e 6d9a 803e
000003c0: 1432 a23e b044 393e bf98 723e d222 5540
000003d0: 463b 9e40 87cf fb3e 1098 223f c8c8 bd3e
000003e0: 8eb2 073e 9ba2 313f 9461 c03e 690b 8b3e
000003f0: b19e d33e 39f2 973e 1c66 a03d 0657 7f3e

layer2.bias f4 [32]
4.6972246 4.6007805 9.329464 4.5853944 4.4768443 4.5596743 4.651958 4.5672655
4.701522 4.6765814 4.6797247 4.5505695 4.669315 7.553432 4.666563 4.422595
4.4473567 4.454192 4.60106 4.661294 4.5107403 4.461651 4.623115 4.529136
4.58627 4.5802965 4.684984 4.4586825 4.622579 4.4822536 4.4473066 4.40909
00000000: aa4f 9640 9839 9340 7c45 1541 8dbb 9240
00000010: 4f42 8f40 dae8 9140 d7dc 9440 0a27 9240
00000020: de72 9640 8ea6 9540 4ec0 9540 449e 9140
00000030: 076b 9540 b7b5 f140 7c54 9540 e685 8d40
00000040: bf50 8e40 be88 8e40 e23b 9340 5229 9540
00000050: fc57 9040 d8c5 8e40 8ff0 9340 afee 9040
00000060: b9c2 9240 ca91 9240 64eb 9540 87ad 8e40
00000070: 2bec 9340 9f6e 8f40 5650 8e40 4417 8d40

layer3.weight f4 [16, 32]
0.5976949 0.6515316 -5.818951 0.53982395 0.743875 0.4686686 0.75301224 0.45804662
0.7196447 0.49130148 0.5123862 0.6015317 0.49422985 -4.6491256 0.7035013 0.694225
0.5671991 0.71726143 0.5892995 0.52872086 0.49927273 0.7025425 0.6388047 0.56128716
0.7104324 0.73380256 0.7675579 0.6865265 0.49315077 0.7382023 0.6462208 0.5552883
-0.15005535 0.09883705 -0.049278714 -0.09554343 0.0674626 0.047893815 -0.0036023797 -0.07659414
-0.02671636 -0.1389919 -0.16383676 -0.20841323 -0.11558685 -0.02637542 0.035152387 -0.104353935
0.0181619 -0.12805867 -0.17179874 -0.031075906 -0.1762033 0.049908165 -0.19648737 -0.09735652
-0.15085281 -0.10000288 -0.15383779 -0.17238592 -0.17935452 0.028397229 -0.15702021 0.085945025
-0.1948901 -0.21254471 0.1339574 0.052602977 -0.081749946 -0.1544536 0.0064835427 0.07624115
-0.19754168 -0.16752622 0.0544483 -0.14120393 -0.11174221 0.023202324 -0.13916345 -0.027132418
-0.14033034 -0.0018993819 -0.00025148864 0.07229596 -0.005819525 -0.21437036 -0.021365946 -0.14731167
0.04935557 -0.064368136 -0.1784157 -0.1675523 0.007874705 0.082455054 -0.115257956 -0.0810905
0.5855166 0.59507275 -6.1880374 0.59519994 0.48051563 0.6867396 0.48990598 0.48109663
0.48827577 0.4568671 0.4872511 0.57041204 0.71356833 -4.909996 0.6894891 0.73563796
0.7016661 0.5394813 0.47780052 0.7412059 0.47623926 0.38811597 0.70650935 0.61222976
0.72295326 0.5623439 0.5501276 0.6627063 0.4968802 0.5974748 0.62723374 0.42033964
-0.034016073 -0.18205264 -0.11252525 0.03961932 -0.094697 -0.08126287 -0.098998815 -0.1639118
-0.14598116 0.0053104335 -0.13316077 -0.12349379 -0.18934992 0.16029505 -0.14099391 0.03596698
-0.01954687 -0.18088083 -0.21549658 0.046501093 -0.10183314 -0.08768288 -0.020124491 0.03582901
-0.034275673 -0.16669531 -0.13280399 -0.00046108468 0.0046140677 0.025890408 0.08556162 0.06100808
0.5620468 0.43129143 -6.0432935 0.5345119 0.60632867 0.58827245 0.688227 0.693157
0.66257024 0.61117387 0.48134124 0.72320694 0.5681582 -4.981221 0.40051833 0.6495938
0.44195315 0.55711144 0.4858266 0.66614556 0.6706246 0.5997207 0.5568072 0.5148713
0.5456475 0.631176 0.6371665 0.64276737 0.5474713 0.53310454 0.74828815 0.70922804
0.54434466 0.68004423 -6.2324224 0.59606695 0.5499213 0.44849607 0.68576235 0.6997015
0.43904704 0.5447418 0.5584066 0.71528965 0.4948248 -4.9070077 0.6619246 0.67096096
0.50217235 0.54786533 0.492609 0.5348683 0.52247375 0.4627307 0.52215576 0.66237813
0.7250463 0.6420985 0.51361644 0.47125342 0.6284468 0.47115645 0.57015204 0.6950305
0.4806707 0.57019216 -6.2595243 0.5555657 0.54592335 0.65248483 0.5947032 0.6706849
0.7135904 0.6579427 0.764772 0.6548468 0.5167407 -4.933498 0.5488082 0.44225502
0.51020575 0.73487014 0.68276924 0.49566498 0.6579613 0.5899946 0.6544158 0.67440856
0.5694381 0.6673835 0.7292041 0.56210166 0.47765502 0.63207257 0.5400579 0.6805146
00000000: 8802 193f c6ca 263f d934 bac0 e731 0a3f
00000010: 986e 3e3f 55f5 ef3e 69c5 403f 1685 ea3e
00000020: a33a 383f de8b fb3e be2b 033f fbfd 193f
00000030: b20b fd3e a3c5 94c0 a918 343f bbb8 313f
00000040: f633 113f 729e 373f 55dc 163f 405a 073f
00000050: ada0 ff3e d3d9 333f b488 233f 84b0 0f3f
00000060: e6de 353f 7cda 3b3f ad7e 443f 33c0 2f3f
00000070: 427e fc3e d3fa 3c3f ba6e 253f 6027 0e3f
00000080: 1ca8 19be 146b ca3d 7ad8 49bd 46ac c3bd
00000090: d529 8a3d 4e2c 443d e715 6cbb 63dd 9cbd
000000a0: 45dc dabc e553 0ebe d3c4 27be 476a 55be
000000b0: ccb8 ecbd 4411 d8bc f3fb 0f3d 84b7 d5bd
000000c0: 44c8 943c d021 03be 02ec 2fbe e692 febc
000000d0: a36e 34be 816c 4c3d fc33 49be db62 c7bd
000000e0: 2979 1abe 4fce ccbd a787 1dbe ef85 30be
000000f0: b6a8 37be 4ea1 e83c e8c9 20be f203 b03d
00000100: 4591 47be 52a5 59be 212c 093e 3876 573d
00000110: 846c a7bd 1629 1ebe e673 d43b 5224 9c3d
00000120: 5e48 4abe fe8b 2bbe 2e05 5f3d c397 10be
00000130: 1ad9 e4bd cd12 be3c dd80 0ebe ce44 debc
00000140: c2b2 0fbe aef4 f8ba 3cda 83b9 e70f 943d
00000150: b7b1 bebb e783 5bbe a307 afbc dfd8 16be
00000160: 1129 4a3d 71d3 83bd 9bb2 36be d592 2bbe
00000170: e804 013c 32de a83d 5d0c ecbd c712 a6bd
00000180: 6ae4 153f b056 183f 6704 c6c0 065f 183f
00000190: 2506 f63e 2bce 2f3f f5d4 fa3e 4c52 f63e
000001a0: 48ff f93e 7cea e93e fa78 f93e 8606 123f
000001b0: 6aac 363f b01e 9dc0 5c82 303f c552 3c3f
000001c0: 64a0 333f 721b 0a3f 45a2 f43e abbf 3d3f
000001d0: a2d5 f33e 23b7 c63e ccdd 343f 17bb 1c3f
000001e0: 7713 393f c5f5 0f3f 2ad5 0c3f 1fa7 293f
000001f0: 1567 fe3e 1cf4 183f 6492 203f c236 d73e
00000200: 7054 0bbd 026c 3abe a373 e6bd de47 223d
00000210: 80f0 c1bd 266d a6bd e4bf cabd 7fd8 27be
00000220: 167c 15be 2503 ae3b 4c5b 08be 50ea fcbd
00000230: f2e4 41be 6324 243e b560 10be 1d52 133d
00000240: c220 a0bc d338 39be 23ab 5cbe ee77 3e3d
00000250: e58d d0bd 1593 b3bd 1edc a4bc 71c1 123d
00000260: a664 0cbd 2db2 2abe c5fd 07be bdbd f1b9
00000270: 9b31 973b 1f18 d43c ee3a af3d 9ce3 793d
00000280: 4de2 0f3f 3bd2 dc3e a962 c1c0 c6d5 083f
00000290: 5b38 1b3f 0699 163f a52f 303f bd72 313f
000002a0: 349e 293f e475 1c3f 5c72 f63e 1724 393f
000002b0: d172 113f 2a66 9fc0 bd10 cd3e c74b 263f
000002c0: af47 e23e db9e 0e3f 44be f83e 8488 2a3f
000002d0: 0eae 2b3f 4c87 193f eb8a 0e3f 9bce 033f
000002e0: 8eaf 0b3f c094 213f 581d 233f 678c 243f
000002f0: 1427 0c3f 8a79 083f d08f 3f3f f88f 353f
00000300: 2c5a 0b3f 6117 2e3f 0170 c7c0 d897 183f
00000310: a4c7 0c3f 47a1 e53e 1f8e 2f3f a31f 333f
00000320: c6ca e03e 3374 0b3f bcf3 0e3f 391d 373f
00000330: ad59 fd3e 3506 9dc0 e473 293f 19c4 2b3f
00000340: 5e8e 003f e740 0c3f 3f37 fc3e 21ed 083f
00000350: d7c0 053f 0aeb ec3e 00ac 053f 9d91 293f
00000360: a29c 393f 9160 243f 5e7c 033f 2148 f13e
00000370: e4e1 203f 6b3b f13e 7cf5 113f 85ed 313f
00000380: 781a f63e 1df8 113f 064e c8c0 8e39 0e3f
00000390: a2c1 0b3f 3f09 273f 783e 183f 01b2 2b3f
000003a0: dcad 363f ef6e 283f 19c8 433f 0aa4 273f
000003b0: 1e49 043f 37df 9dc0 b27e 0c3f 406f e23e
000003c0: d89c 023f 7320 3c3f f7c9 2e3f cdc7 fd3e
000003d0: 2770 283f e309 173f cb87 273f 0aa6 2c3f
000003e0: b2c6 113f a5d9 2a3f 1fad 3a3f e5e5 0f3f
000003f0: 338f f43e 82cf 213f 3c41 0a3f 3436 2e3f

layer3.bias f4 [16]
37.856346 0.07206179 0.106611095 37.77683 -0.17886533 37.691025 37.684402 38.038345
0.08457866 -0.074761994 37.87362 -0.21087055 -0.08391711 -0.053832896 37.817932 37.670033
00000000: e66c 1742 2295 933d eb56 da3d 791b 1742
00000010: 7928 37be 9cc3 1642 d4bc 1642 4427 1842
00000020: 9437 ad3d d11c 99bd 967e 1742 73ee 57be
00000030: bcdc abbd e27f 5cbd 9045 1742 1dae 1642

layer4.weight f4 [1, 16]
1.6770734 -0.073180854 0.0026093032 1.687854 0.009432323 1.8419772 1.8527184 1.6905493
-0.014938134 -0.08571912 1.8110656 -0.00360565 -0.09872126 -0.06083569 1.8556051 2.2052667
00000000: 57aa d63f d8df 95bd d800 2b3b 9a0b d83f
00000010: 088a 1a3c e9c5 eb3f e025 ed3f eb63 d83f
00000020: 13bf 74bc 828d afbd ffd0 e73f c54c 6cbb
00000030: 5f2e cabd d82e 79bd 7884 ed3f 1723 0d40
